results/full_evaluation/phase_1_1_cross_validation/fold_1/temp_model_theta_8.pt (torch, 4811 bytes, 3 tensors)

net.0.weight f4 [16, 32]
000000 a3 69 32 3d a6 99 29 3d 2a 69 ff bd e0 46 c9 3d
       0.043557774 0.041406296 -0.1247123 0.098279715
000010 0a f3 da bd af 84 0a bd 83 3e 07 be 25 cb 99 3d
       -0.10690887 -0.033817943 -0.1320744 0.0750945
000020 61 84 22 3e ff 5b fc bd 30 be 1d 3e e1 06 79 bc
       0.15870811 -0.12322234 0.15404582 -0.015199394
000030 08 81 4a 3d 57 63 d1 bc b5 27 cb 3d 9e 01 eb 3b
       0.04943946 -0.025560064 0.09919683 0.0071718236
000040 b7 ca 2b 3e c9 aa 04 3d 29 16 e7 bd 8b 7b 9b 3c
       0.16776548 0.032389436 -0.112835236 0.018979808
000050 55 dc b0 bd e5 c0 30 3a 91 87 8b bd 86 e6 97 3d
       -0.08635775 0.0006742611 -0.068129666 0.07417016
000060 32 8e 4e be c5 98 08 be dc 1a a0 bd ad c3 c4 bd
       -0.2017143 -0.13339527 -0.07817623 -0.09607635
000070 7e 92 8d 3d 80 c5 d3 bd 79 03 8a 3e 88 7e b4 bb
       0.06912707 -0.103404045 0.26955774 -0.0055082478
000080 de e9 00 3e 00 42 e1 bc 5f 84 be bd 5d c9 c4 3d
       0.12589213 -0.027497292 -0.093025915 0.096087195
000090 bc 30 90 3a f3 b3 03 3e 96 0a 16 3d ea 22 27 bd
       0.0011000852 0.12861614 0.03663119 -0.04080478
0000a0 8d c2 e2 3d 82 02 a5 3c 7b 72 18 3e 9b 2d 16 3e
       0.11072264 0.020142797 0.14887421 0.14665835
0000b0 1d ff 8e 3c b9 bd 0a be 13 44 07 3e 4b 3c a4 3d
       0.017455632 -0.13548936 0.13209562 0.080193125
0000c0 5b 01 10 3e 1f d1 ca bd 36 bb 7e be 18 7e ed bd
       0.14063017 -0.09903168 -0.24876103 -0.11596316
0000d0 11 61 10 be 63 3f 37 3e 2f 37 9e 3d 3e 0d 19 3d
       -0.14099528 0.17895274 0.07725369 0.037366144
0000e0 2d 6d 98 bc d3 68 99 bd f5 f7 aa 3d 30 38 d3 bd
       -0.018606747 -0.07490697 0.08348075 -0.10313451
0000f0 e8 03 07 3e 34 b0 37 3d 1b bb 96 3e 8d c1 7b 3e
       0.13185084 0.044845775 0.29439625 0.24585553
000100 7c de 5d 3d f8 da 16 bd ce 22 16 3e bd 94 d6 bd
       0.054167256 -0.03682992 0.14661714 -0.10477588
000110 4c eb d7 bd a3 ee d7 bd 08 d1 22 3e b1 4c 71 3d
       -0.10542926 -0.10543563 0.15900052 0.05891103
000120 9c 2f 2e 3e 16 64 15 be 7b 8c 33 be 7b 9f 0d be
       0.17010349 -0.14588961 -0.17534058 -0.13830368
000130 1a 8a f3 bd e4 a3 92 3d 26 a3 81 3d d3 69 16 3e
       -0.11891575 0.07160166 0.06329946 0.14688806
000140 49 f7 ba bd 58 ce f6 bd fd 16 c0 3d 70 56 92 bd
       -0.09129197 -0.12051076 0.09379385 -0.07145393
000150 da ba db 3d f2 d2 2b bd 4d 1a cf 3d 6f a5 0c be
       0.107289985 -0.04194922 0.10112438 -0.13734983
000160 e6 b3 b6 bd 0e c1 5c 3d 4e 13 19 3d 1f 9c 38 bd
       -0.08921032 0.05389505 0.037371926 -0.045070764
000170 d9 cc d7 3d 02 1e f6 3d 39 45 03 be eb 47 c1 bd
       0.105371185 0.12017442 -0.12819375 -0.094375454
000180 a5 c0 25 3e c5 53 74 bd 40 59 80 bd 41 27 2f be
       0.1618677 -0.0596502 -0.06267023 -0.17104818
000190 2a 54 cf bd 8e e0 34 3d 83 25 bf bc 3f 66 03 be
       -0.10123475 0.044159465 -0.023333317 -0.12831973
0001a0 2c e0 87 3b 4a 4d f7 bd 82 93 19 be 75 5c c7 bd
       0.0041465964 -0.120752886 -0.14997676 -0.09734432
0001b0 29 6e 1e be 18 86 e6 bd d3 f2 34 3e 94 c2 08 3d
       -0.1547171 -0.11256045 0.17670755 0.03338869
0001c0 a7 21 5f 3d 7a d5 28 be 0b c7 ed bd 6b 03 71 bd
       0.054475453 -0.16487685 -0.1161023 -0.05884115
0001d0 16 73 e2 3c 64 48 1f be 22 fe 9b bd bd bd d8 bd
       0.027642768 -0.15554959 -0.07616831 -0.10583065
0001e0 39 6c 00 3a 3b b7 86 bd b4 b3 48 bc 02 54 f5 bd
       0.0004898939 -0.06577917 -0.012249876 -0.11978914
0001f0 68 80 f8 bd c9 36 d3 bd 8d d9 77 bd 07 e0 0e be
       -0.121338665 -0.10313184 -0.060510207 -0.13952647
000200 17 60 00 3e 1f 94 6d bd c0 bf 05 3e 8e a1 0c 3d
       0.12536655 -0.058002587 0.13061428 0.034333758
000210 98 a4 30 be 23 a6 cd 3d 8c 69 92 bd 8d 66 b5 bd
       -0.17250288 0.10041454 -0.07149038 -0.08857451
000220 e3 17 2b be b2 84 4b be a9 6d d3 3c 4b cf 7b bd
       -0.16708331 -0.19874838 0.025809126 -0.061476987
000230 40 a4 46 3d 4f 38 29 be ec 26 e2 3d b2 bc 1b be
       0.048496485 -0.16525386 0.1104258 -0.152087
000240 20 e6 5f bd 36 27 3c 3c 8c 28 85 3d bb d9 ec 3d
       -0.054662824 0.011483958 0.06501874 0.11564966
000250 1a 1d 0a 3e 3f 4a 29 be 34 cc b7 3c 5d e0 c5 bd
       0.13487664 -0.16532229 0.022436239 -0.096619345
000260 0b 50 26 bd 66 a8 1d be a5 6d 0e 3e 62 c1 19 be
       -0.04060368 -0.1539627 0.13909014 -0.15015176
000270 9f 9d 95 3d e3 d5 25 3d 9d 0c 1a 3d 72 d1 eb bd
       0.073054545 0.04048718 0.037609685 -0.11514558
000280 e3 1a 1b 3e 5c c5 f2 3c 69 a8 5d 3c f5 f4 28 be
       0.15146975 0.029635124 0.013528922 -0.16499694
000290 4d 1d 85 3d 66 5b 12 bd 51 b9 b8 bd a4 0d 12 3e
       0.06499729 -0.035731696 -0.09019721 0.14263016
0002a0 3b 67 f7 3c 31 2c db bd 68 1b ca bd 65 9e 90 bc
       0.030200591 -0.10701788 -0.098685086 -0.017653653
0002b0 7e 48 b7 3d bf c1 5e bd 74 6f e1 bd bf d7 8e bd
       0.08949374 -0.05438399 -0.11007586 -0.06974744
0002c0 e6 aa 10 be c3 7f 5c 3d fd ae 02 3e 08 da 33 be
       -0.14127693 0.05383278 0.12762065 -0.17563641
0002d0 bb 6f 02 3d 24 29 a8 3d 85 21 bb 3c e0 cb 93 bd
       0.031844836 0.08210972 0.022843132 -0.072166204
0002e0 06 19 aa 3d fe 63 ab 3d 7a 05 69 3d 4d f7 24 bd
       0.08305554 0.08368681 0.05688999 -0.040274907
0002f0 86 77 65 bd 92 ed 1e 3c 4a a4 25 bd 9f 81 7d bd
       -0.05602219 0.009700196 -0.04043988 -0.061891194
000300 b5 10 92 3d ee a2 9a 3d 20 38 9b bd 18 6f a6 bd
       0.07132093 0.075506076 -0.07579064 -0.08126658
000310 a7 fd 4c bd a9 df 63 bd 90 80 e3 3c 16 38 25 3d
       -0.05004659 -0.05563322 0.027771264 0.04033669
000320 5b 18 06 be e0 c3 04 bd bb 0e 3a 3e 73 fb f2 3c
       -0.13095228 -0.032413363 0.18169682 0.029660916
000330 27 2e d4 bd b4 b1 2d be f0 0e b8 bd 72 6b fc bd
       -0.10360365 -0.1696232 -0.08987224 -0.12325181
000340 14 29 e2 bc 8a 36 4c 3d 32 7b 1c 3d e1 35 de 3c
       -0.027607478 0.0498567 0.038203426 0.0271253
000350 8b ea 32 be dd 53 ba bd fa 3f b2 bc 4f cb 00 3e
       -0.17472284 -0.09098027 -0.021759022 0.12577556
000360 5d e2 44 bd cf 94 ea bd ab 30 b2 3c ea 3a 71 bd
       -0.04806744 -0.11454164 0.021751722 -0.058894075
000370 2e db 03 bd d9 ca 7a 3e 2b e8 b8 3d 92 dc 3f 3e
       -0.032191448 0.24491443 0.090286575 0.18736485
000380 2d 14 34 be 46 4d f2 3d 82 25 09 3e c0 f1 83 3d
       -0.17585821 0.11831145 0.13393214 0.064425945
000390 b3 70 fc bd bb a7 32 be 25 05 13 be 75 fc 06 3e
       -0.12326183 -0.17446797 -0.14357431 0.13182242
0003a0 1d d1 ad 3d 1d 54 18 3e 41 a9 bd 3d 20 42 37 3d
       0.08487151 0.14875837 0.09260798 0.044740796
0003b0 b3 e6 e2 ba 92 aa 09 be a3 17 1b be f2 50 29 be
       -0.0017311185 -0.13443974 -0.15145735 -0.16534784
0003c0 72 34 94 3d d8 bf b1 bd f1 b8 11 bd eb 5a d0 bd
       0.07236566 -0.086791694 -0.035576764 -0.10173591
0003d0 a7 f1 03 bd c1 d0 fe bd ce 8f ec bd 2d 2f 70 3d
       -0.03221288 -0.124421604 -0.11550866 0.05863874
0003e0 73 31 57 bd 8a 80 df 3d 55 4a 68 bd 34 ca 04 be
       -0.052537393 0.10913189 -0.056711514 -0.1296776
0003f0 c7 82 ff bc 4f 7f af bd 7e 86 5d bd 61 54 2c be
       -0.03119029 -0.08569204 -0.05408334 -0.16829063

net.0.bias f4 [16]
000000 dc c0 68 be 55 c6 0b bf fa 13 e5 bd 0e 7f 16 be
       -0.2272982 -0.54599506 -0.11185451 -0.14696905
000010 57 9f 00 3e e3 d8 34 be 40 e7 4b be da ba c2 bb
       0.12560783 -0.1766086 -0.19912434 -0.0059426846
000020 e7 2f 4b bd 77 a6 a2 be 77 d9 85 bc 59 5b 15 be
       -0.04960623 -0.31767628 -0.016339047 -0.14585628
000030 22 ec f2 3d c9 f0 26 be 7a f9 de 3e ce e8 78 be
       0.11861445 -0.1630279 0.4354971 -0.24307558

net.2.weight f4 [1, 16]
000000 1e 9a 26 bc 15 ca 0a 3d 40 0c 8c 3d 64 4e f6 bd
       -0.01016858 0.033884127 0.06838274 -0.120266706
000010 eb a2 81 bc 97 cc 69 3e 95 7f aa bb 60 e1 19 bc
       -0.015824756 0.22831951 -0.0052031972 -0.0093921125
000020 6c 14 35 be 5c 9a a0 be 48 54 2e be ea 57 58 3e
       -0.17683572 -0.31367767 -0.17024338 0.21127287
000030 f0 da 13 be 70 34 0b bc 5c eb cc bd cd bf 7a ba
       -0.14438987 -0.008496389 -0.10005829 -0.00095653237
