results/full_evaluation/phase_1_1_cross_validation/fold_1/temp_model_theta_22.pt (torch, 4821 bytes, 3 tensors)

net.0.weight f4 [16, 32]
000000 13 34 12 3d f5 46 8a 3d 70 32 4a bd 90 d9 06 3e
       0.035694193 0.06751815 -0.049364507 0.13168931
000010 f4 5c be bd df 5c 19 bd e3 88 e1 bd 58 0d b2 3c
       -0.09295073 -0.037442084 -0.11012437 0.021734878
000020 cf 41 0a 3e 41 05 01 be 84 35 bf 3d d2 76 38 bd
       0.13501666 -0.1259966 0.09336379 -0.04503519
000030 2b 12 20 3d b6 15 25 bd 1d 3b 95 3d 32 da 23 bd
       0.039079826 -0.04030391 0.072866656 -0.04000301
000040 5b 3f 16 3e c6 d2 08 3c c3 b5 f8 bd d1 ab c2 3c
       0.14672606 0.008351034 -0.12144043 0.02376357
000050 d4 a2 e8 bc b4 3d a4 bb e5 84 4b bc 3d f5 c3 3d
       -0.028397955 -0.0050122384 -0.012421821 0.0956826
000060 88 e5 2c be 1b 4c f0 bd 1b 04 aa bd 59 b9 8f bd
       -0.16884434 -0.11733266 -0.08301564 -0.07017774
000070 87 21 9b 3c ed f5 10 be b4 65 6c 3e 72 1d f6 3b
       0.018936886 -0.14156313 0.23085672 0.0075108344
000080 a6 b5 ae 3d c6 f3 97 3b 16 34 7d bc 3a 9c d6 3d
       0.085307404 0.0046372144 -0.015454313 0.104790166
000090 2c 89 21 bd 18 2c 7c 3d 8a 2c bc 3d 5e fe 0e be
       -0.039437458 0.06156549 0.09188183 -0.13964221
0000a0 45 65 85 3d c5 86 3a 3d 44 f7 96 3d a0 4f 00 3e
       0.06513456 0.045538682 0.07371381 0.12530375
0000b0 0f 22 3f 3c d8 36 0e be 59 68 a4 3d 62 a3 de 3c
       0.011665835 -0.13888109 0.08027715 0.027177516
0000c0 bd 2d 32 3e 80 0a 22 bd 7c 19 43 be 2e de 2e bc
       0.1740026 -0.039560795 -0.1905269 -0.010673089
0000d0 71 7d 87 3d e9 96 4c 3e d4 db 96 3e 55 d1 5d 3e
       0.06615723 0.19979443 0.2946459 0.21661885
0000e0 cd 80 f0 3d 3d 9c 28 3d c7 16 29 3e 83 45 9b 3d
       0.11743317 0.041164625 0.16512595 0.07581618
0000f0 c6 21 d4 3d 57 d9 d5 3d db c7 a2 3e 86 9b ab 3e
       0.10358004 0.10441845 0.31793103 0.33517092
000100 7c de 5d 3d f8 da 16 bd ce 22 16 3e bd 94 d6 bd
       0.054167256 -0.03682992 0.14661714 -0.10477588
000110 4c eb d7 bd a3 ee d7 bd 08 d1 22 3e b1 4c 71 3d
       -0.10542926 -0.10543563 0.15900052 0.05891103
000120 9c 2f 2e 3e 16 64 15 be 7b 8c 33 be 7b 9f 0d be
       0.17010349 -0.14588961 -0.17534058 -0.13830368
000130 1a 8a f3 bd e4 a3 92 3d 26 a3 81 3d d3 69 16 3e
       -0.11891575 0.07160166 0.06329946 0.14688806
000140 49 f7 ba bd 58 ce f6 bd fd 16 c0 3d 70 56 92 bd
       -0.09129197 -0.12051076 0.09379385 -0.07145393
000150 da ba db 3d f2 d2 2b bd 4d 1a cf 3d 6f a5 0c be
       0.107289985 -0.04194922 0.10112438 -0.13734983
000160 e6 b3 b6 bd 0e c1 5c 3d 4e 13 19 3d 1f 9c 38 bd
       -0.08921032 0.05389505 0.037371926 -0.045070764
000170 d9 cc d7 3d 02 1e f6 3d 39 45 03 be eb 47 c1 bd
       0.105371185 0.12017442 -0.12819375 -0.094375454
000180 a5 c0 25 3e c5 53 74 bd 40 59 80 bd 41 27 2f be
       0.1618677 -0.0596502 -0.06267023 -0.17104818
000190 2a 54 cf bd 8e e0 34 3d 83 25 bf bc 3f 66 03 be
       -0.10123475 0.044159465 -0.023333317 -0.12831973
0001a0 2c e0 87 3b 4a 4d f7 bd 82 93 19 be 75 5c c7 bd
       0.0041465964 -0.120752886 -0.14997676 -0.09734432
0001b0 29 6e 1e be 18 86 e6 bd d3 f2 34 3e 94 c2 08 3d
       -0.1547171 -0.11256045 0.17670755 0.03338869
0001c0 a7 21 5f 3d 7a d5 28 be 0b c7 ed bd 6b 03 71 bd
       0.054475453 -0.16487685 -0.1161023 -0.05884115
0001d0 16 73 e2 3c 64 48 1f be 22 fe 9b bd bd bd d8 bd
       0.027642768 -0.15554959 -0.07616831 -0.10583065
0001e0 39 6c 00 3a 3b b7 86 bd b4 b3 48 bc 02 54 f5 bd
       0.0004898939 -0.06577917 -0.012249876 -0.11978914
0001f0 68 80 f8 bd c9 36 d3 bd 8d d9 77 bd 07 e0 0e be
       -0.121338665 -0.10313184 -0.060510207 -0.13952647
000200 bb 5f e3 3e 7d 40 94 3d b5 f2 27 bd 6d 78 cd bd
       0.44408974 0.07238863 -0.041002948 -0.10032735
000210 6d b7 80 be 7e 46 03 3e 5c 65 12 be 33 ef fe 3c
       -0.25139943 0.1281986 -0.14296478 0.031119918
000220 b7 f9 ee be 30 18 bf be fd 25 4d 3d 53 62 95 be
       -0.46674892 -0.3732314 0.050085057 -0.29176578
000230 87 a2 90 bd c8 84 c5 be 3b 59 8d bd d5 c9 a7 be
       -0.0706225 -0.38577867 -0.06901785 -0.32771173
000240 76 f9 31 be 90 97 5d 3e 8f 49 ae 3e dc 68 f8 3e
       -0.17380318 0.21639848 0.34040496 0.485175
000250 01 76 b6 3e f4 2c af 3c bf 9c 15 be 1f 8d 53 be
       0.35636905 0.02138374 -0.14610575 -0.20659302
000260 1f 89 d3 bd ce d8 09 be 16 ba 48 3d 4e ef e6 be
       -0.10328888 -0.1346161 0.04900559 -0.4510445
000270 eb 70 8a 3e 8f 1c c5 3e fa c4 7f 3e 1f 12 76 3e
       0.27039275 0.3849835 0.24977484 0.2403035
000280 7d cd 1d 3e 10 2d 04 3d db 68 84 3c 5a 42 26 be
       0.15410419 0.032269537 0.01616328 -0.16236249
000290 6d 82 8a 3d 21 91 07 bd 37 54 b3 bd 36 c0 14 3e
       0.06763158 -0.03309739 -0.08756297 0.14526448
0002a0 e8 7d 06 3d 13 c7 d5 bd 42 b6 c4 bd da 13 76 bc
       0.032834917 -0.10438361 -0.096050754 -0.015019381
0002b0 99 ad bc 3d 75 f7 53 bd 5a 0a dc bd a6 72 89 bd
       0.092127986 -0.051749665 -0.10744162 -0.067113206
0002c0 54 f8 0d be 03 4a 67 3d 92 61 05 3e 6d 27 31 be
       -0.13864261 0.056467067 0.13025501 -0.17300196
0002d0 10 3a 0d 3d 4f 8e ad 3d 41 b6 d0 3c af 66 8e bd
       0.0344792 0.08474409 0.02547753 -0.06953179
0002e0 34 7e af 3d 2c c9 b0 3d d6 cf 73 3d 23 2d 1a bd
       0.08568993 0.086321205 0.05952438 -0.037640702
0002f0 5e ad 5a bd 4d 16 4a 3c 15 da 1a bd 6a b7 72 bd
       -0.053387992 0.0123344185 -0.037805635 -0.05925695
000300 4a 89 7f ba e6 5b 88 3d 61 33 43 bd c6 cf d9 bd
       -0.00097479357 0.06658153 -0.04765642 -0.10635333
000310 9c f3 e7 bd 6a 95 08 be 83 53 05 3d 04 6a aa bd
       -0.11325762 -0.13338247 0.032550346 -0.08321002
000320 19 58 50 be b8 82 82 bd b7 2a 87 3d c6 df d2 bc
       -0.20346107 -0.06372589 0.06599944 -0.02574147
000330 87 82 0e be 70 bc 52 be 29 ec 2a be 6a 93 58 be
       -0.1391698 -0.20579696 -0.1669165 -0.21149984
000340 47 e2 3d bd 81 43 1b 3d fd b6 de 3c 1d 46 80 3d
       -0.046358373 0.037906174 0.027186865 0.06263373
000350 28 a0 36 bd d5 86 f6 bd 3f bc e1 3d fc 0e 6b 3e
       -0.04458633 -0.12037436 0.11022233 0.22954935
000360 1b 59 f9 3c 1f 48 68 bd 2f a8 46 3d ff ed 3a 3d
       0.030437997 -0.056709405 0.048500236 0.045637127
000370 b1 31 b9 bd d7 a5 65 3e de e0 44 3d 0e 27 59 3e
       -0.09042681 0.22426544 0.048066013 0.21206304
000380 2d 14 34 be 46 4d f2 3d 82 25 09 3e c0 f1 83 3d
       -0.17585821 0.11831145 0.13393214 0.064425945
000390 b3 70 fc bd bb a7 32 be 25 05 13 be 75 fc 06 3e
       -0.12326183 -0.17446797 -0.14357431 0.13182242
0003a0 1d d1 ad 3d 1d 54 18 3e 41 a9 bd 3d 20 42 37 3d
       0.08487151 0.14875837 0.09260798 0.044740796
0003b0 b3 e6 e2 ba 92 aa 09 be a3 17 1b be f2 50 29 be
       -0.0017311185 -0.13443974 -0.15145735 -0.16534784
0003c0 72 34 94 3d d8 bf b1 bd f1 b8 11 bd eb 5a d0 bd
       0.07236566 -0.086791694 -0.035576764 -0.10173591
0003d0 a7 f1 03 bd c1 d0 fe bd ce 8f ec bd 2d 2f 70 3d
       -0.03221288 -0.124421604 -0.11550866 0.05863874
0003e0 73 31 57 bd 8a 80 df 3d 55 4a 68 bd 34 ca 04 be
       -0.052537393 0.10913189 -0.056711514 -0.1296776
0003f0 c7 82 ff bc 4f 7f af bd 7e 86 5d bd 61 54 2c be
       -0.03119029 -0.08569204 -0.05408334 -0.16829063

net.0.bias f4 [16]
000000 ce 9d 49 be de fd 02 bf fa 13 e5 bd 0e 7f 16 be
       -0.19689104 -0.5116862 -0.11185451 -0.14696905
000010 6f 9f fb 3c 47 26 32 be 2e 03 37 be da ba c2 bb
       0.030715672 -0.17397414 -0.17872307 -0.0059426846
000020 67 d9 01 3f ed 43 62 be 77 d9 85 bc df d6 f1 bd
       0.50722355 -0.22096224 -0.016339047 -0.118085615
000030 29 0d f3 3d 63 69 22 be b9 9b 72 3d ba d0 70 be
       0.118677445 -0.15860514 0.05923054 -0.23517123

net.2.weight f4 [1, 16]
000000 b4 9b ea 3a f5 0f bf 3d 40 0c 8c 3d 64 4e f6 bd
       0.0017899186 0.093292154 0.06838274 -0.120266706
000010 84 2e 81 be 08 7f 6c 3e ca a3 14 bc 60 e1 19 bc
       -0.252308 0.23095334 -0.0090722535 -0.0093921125
000020 b9 99 a3 bd c4 ee 49 3c 48 54 2e be d3 3d 44 3e
       -0.07988305 0.012324993 -0.17024338 0.19164209
000030 a0 a3 11 be a0 c0 53 bc a3 55 52 be c9 37 1a bc
       -0.14222574 -0.012924343 -0.2054048 -0.009412714
