results/full_evaluation/phase_1_1_cross_validation/fold_1/temp_model_theta_12.pt (torch, 4821 bytes, 3 tensors)

net.0.weight f4 [16, 32]
00000000: 7419 d93c 9684 f83c c99b c5bd e68f da3d
00000010: 3f2d 00be 64e5 52bd 409e 36be 9b16 9cbb
00000020: 1705 d43d 5545 eabd 8073 013e e201 68bd
00000030: a8bf 1c3d 7e4a 82bd 0c41 9d3d 5427 baba
00000040: aeef 2e3e 8fca 3e3d c800 f5bd 68bc 44bc
00000050: b915 a6bd 58ba ba3b de3c 36bd 7641 6e3d
00000060: 36ab 63be c99c 41be 4087 0ebe 8f2d 03be
00000070: cde9 85ba bc9e 25be b7a7 5d3e c1a5 26bd
00000080: 7243 303d 77da c9bd 94f1 bdbd 2d9e 993d
00000090: a609 55bd 03e5 ae3d f39f 3cbd c1d3 20be
000000a0: c35b b73c 7539 523d 3272 dc3d 6a32 8c3d
000000b0: 0954 73bc d8dd 22be 6499 1f3e e213 153e
000000c0: ef32 453e b0a8 5ebd 4bdd 66be 252c b3bd
000000d0: 48c1 40bd d966 7a3e 3c9a 203e f91b ad3d
000000e0: 1911 fc3c da29 afbd 138f 973d adf9 79bd
000000f0: b8ca bb3d eee8 0d3d a9e7 8d3e 24cb 6d3e
00000100: 7cde 5d3d f8da 16bd ce22 163e bd94 d6bd
00000110: 4ceb d7bd a3ee d7bd 08d1 223e b14c 713d
00000120: 9c2f 2e3e 1664 15be 7b8c 33be 7b9f 0dbe
00000130: 1a8a f3bd e4a3 923d 26a3 813d d369 163e
00000140: 49f7 babd 58ce f6bd fd16 c03d 7056 92bd
00000150: daba db3d f2d2 2bbd 4d1a cf3d 6fa5 0cbe
00000160: e6b3 b6bd 0ec1 5c3d 4e13 193d 1f9c 38bd
00000170: d9cc d73d 021e f63d 3945 03be eb47 c1bd
00000180: a5c0 253e c553 74bd 4059 80bd 4127 2fbe
00000190: 2a54 cfbd 8ee0 343d 8325 bfbc 3f66 03be
000001a0: 2ce0 873b 4a4d f7bd 8293 19be 755c c7bd
000001b0: 296e 1ebe 1886 e6bd d3f2 343e 94c2 083d
000001c0: a721 5f3d 7ad5 28be 0bc7 edbd 6b03 71bd
000001d0: 1673 e23c 6448 1fbe 22fe 9bbd bdbd d8bd
000001e0: 396c 003a 3bb7 86bd b4b3 48bc 0254 f5bd
000001f0: 6880 f8bd c936 d3bd 8dd9 77bd 07e0 0ebe
00000200: e819 8f3e 9ca9 123e f952 083e e3fb 07bb
00000210: cd26 a2be 5b47 90be 5b61 bcbe f8e4 acbe
00000220: a5a9 debe 838b 0abf 370e 35be 6cba 1ebe
00000230: cdcc db3d dc03 bebd 3e5e d13d 5228 aabd
00000240: 9926 053e 500c a73e b90d f03e 02bc fb3e
00000250: e8fb 8d3e df28 dfbd 705c 333d e7b5 8ebd
00000260: 6795 4e3d 3e69 aebd ffca e73d 3ddb 99be
00000270: 7c6b bebd 7962 e63d b164 c13e f5f8 0d3e
00000280: b22f 1d3e 93e7 013d 3235 803c 5335 26be
00000290: b1f8 8a3d 43ab 07bd 33af b3bd ae9b 143e
000002a0: 0b64 073d c757 d2bd c8c4 c0bd a4fc 57bc
000002b0: 16ee bf3d e1fc 4ebd 86be d8bd 5d23 85bd
000002c0: 7de8 0bbe b679 6e3d 5eec 063e 93fb 2ebe
000002d0: 5520 153d 32e8 b03d dd15 da3c aeb6 8cbd
000002e0: bcff b03d b535 b23d ff7c 773d baa4 15bd
000002f0: 329c 55bd 4edd 6d3c 00da 10bd 5877 69bd
00000300: ac21 6a3d 9284 793d e501 b9bc 9a8b 4cbd
00000310: 83bf 60bd b9a1 30bd 0272 a83b 9aed ccbc
00000320: 98d6 27be 4f2c 503d f015 513e 7fde 693c
00000330: f899 b3bd 780f 1bbe 36af d2bc cf8e d5bc
00000340: 9c5f 813d fce9 083e c464 b13d 07a4 b63d
00000350: 451f 40bd 8a8f 203c aea5 d43d 6aec 5f3e
00000360: 5921 253d 0d2e b0bd c799 383d ad89 e63c
00000370: f2c6 f4bb 5d4b 9d3e 8b73 1c3e b424 853e
00000380: 2d14 34be 464d f23d 8225 093e c0f1 833d
00000390: b370 fcbd bba7 32be 2505 13be 75fc 063e
000003a0: 1dd1 ad3d 1d54 183e 41a9 bd3d 2042 373d
000003b0: b3e6 e2ba 92aa 09be a317 1bbe f250 29be
000003c0: 7234 943d d8bf b1bd f1b8 11bd eb5a d0bd
000003d0: a7f1 03bd c1d0 febd ce8f ecbd 2d2f 703d
000003e0: 7331 57bd 8a80 df3d 554a 68bd 34ca 04be
000003f0: c782 ffbc 4f7f afbd 7e86 5dbd 6154 2cbe
0.026501395 0.03033666 -0.09648854 0.10671978 -0.1251726 -0.051488295 -0.17833805 -0.004763437
0.10352533 -0.11439005 0.12641716 -0.05664242 0.038268715 -0.063618645 0.07678422 -0.0014202395
0.17083618 0.046579894 -0.1196304 -0.01200781 -0.08109612 0.0056984834 -0.04449164 0.058167897
-0.2223328 -0.18907465 -0.13918781 -0.12810348 -0.0010216773 -0.16173834 0.2164601 -0.04068542
0.04303307 -0.09856122 -0.09274593 0.07500873 -0.052011155 0.08539774 -0.046050977 -0.15705778
0.022382623 0.051324327 0.107639685 0.06845553 -0.0148515785 -0.15904939 0.15585858 0.14558366
0.19257711 -0.05436009 -0.22545354 -0.08748654 -0.047059327 0.24453296 0.15683836 0.08452601
0.030769872 -0.085529044 0.07400336 -0.061029125 0.09169525 0.034645967 0.27715805 0.23222023
0.054167256 -0.03682992 0.14661714 -0.10477588 -0.10542926 -0.10543563 0.15900052 0.05891103
0.17010349 -0.14588961 -0.17534058 -0.13830368 -0.11891575 0.07160166 0.06329946 0.14688806
-0.09129197 -0.12051076 0.09379385 -0.07145393 0.107289985 -0.04194922 0.10112438 -0.13734983
-0.08921032 0.05389505 0.037371926 -0.045070764 0.105371185 0.12017442 -0.12819375 -0.094375454
0.1618677 -0.0596502 -0.06267023 -0.17104818 -0.10123475 0.044159465 -0.023333317 -0.12831973
0.0041465964 -0.120752886 -0.14997676 -0.09734432 -0.1547171 -0.11256045 0.17670755 0.03338869
0.054475453 -0.16487685 -0.1161023 -0.05884115 0.027642768 -0.15554959 -0.07616831 -0.10583065
0.0004898939 -0.06577917 -0.012249876 -0.11978914 -0.121338665 -0.10313184 -0.060510207 -0.13952647
0.27949452 0.14322513 0.13312902 -0.0020749501 -0.31670228 -0.2817944 -0.36793026 -0.3376844
-0.43488804 -0.5411913 -0.17681204 -0.15500802 0.10732422 -0.0927808 0.102230534 -0.08308472
0.13003005 0.3262658 0.4688547 0.49166876 0.27731252 -0.108964674 0.043789327 -0.06968289
0.05043545 -0.08516167 0.11318015 -0.30050078 -0.09297845 0.11249251 0.37772134 0.13864501
0.15350226 0.031714987 0.015650366 -0.16231279 0.06785715 -0.033122312 -0.08773651 0.14512512
0.033054393 -0.102706484 -0.09412533 -0.013182793 0.09371583 -0.050534133 -0.105832145 -0.06500886
-0.13662906 0.05822154 0.13176104 -0.17088155 0.036407787 0.08638038 0.026621753 -0.06870781
0.086425275 0.0870165 0.06042194 -0.03653405 -0.052150913 0.014518095 -0.03536415 -0.05699858
0.05716102 0.060917445 -0.022583911 -0.049937822 -0.05487014 -0.04312298 0.005140544 -0.025015641
-0.16390455 0.050823506 0.20418525 0.014274239 -0.087696016 -0.1514262 -0.025718313 -0.026069073
0.06317064 0.13370508 0.08661798 0.089180045 -0.04690482 0.009799847 0.103831634 0.21867529
0.040315006 -0.086025335 0.04506853 0.02814182 -0.007470005 0.3072156 0.15278451 0.26004565
-0.17585821 0.11831145 0.13393214 0.064425945 -0.12326183 -0.17446797 -0.14357431 0.13182242
0.08487151 0.14875837 0.09260798 0.044740796 -0.0017311185 -0.13443974 -0.15145735 -0.16534784
0.07236566 -0.086791694 -0.035576764 -0.10173591 -0.03221288 -0.124421604 -0.11550866 0.05863874
-0.052537393 0.10913189 -0.056711514 -0.1296776 -0.03119029 -0.08569204 -0.05408334 -0.16829063

net.0.bias f4 [16]
00000000: cb60 62be c374 05bf fa13 e5bd 0e7f 16be
00000010: 4220 d6b9 a70b 35be 57b5 56be daba c2bb
00000020: 82f6 173f 1b21 92be 77d9 85bc 9895 0ebe
00000030: e8b4 f43d bedb 24be b8e1 e53e 4635 0abe
-0.22107236 -0.5213129 -0.11185451 -0.14696905 -0.00040841295 -0.17680226 -0.20967613 -0.0059426846
0.59360516 -0.28540882 -0.016339047 -0.13924253 0.11948568 -0.1609945 0.44898772 -0.13496885

net.2.weight f4 [1, 16]
00000000: 192e 223b 889c d03c 400c 8c3d 644e f6bd
00000010: 9b46 03be 3c86 6c3e d7f7 403d 60e1 19bc
00000020: 84c1 59bd 3519 79be 4854 2ebe 88c5 4b3e
00000030: 7545 14be aca3 d8bc 33ac 75bd ddde 75be
0.0024746715 0.025465265 0.06838274 -0.120266706 -0.12819903 0.23098081 0.04711136 -0.0093921125
-0.053163067 -0.24326022 -0.17024338 0.19899571 -0.14479621 -0.026445232 -0.059978675 -0.24010797
