results/full_evaluation/phase_1_1_cross_validation/fold_1/temp_model_theta_28.pt (torch, 4821 bytes, 3 tensors)

net.0.weight f4 [16, 32]
00000000: 10c0 863d 1029 073e dbab 7bbd c584 fe3d
00000010: 318e a3bd e9b1 d73c 6fac 0fbe f603 d73c
00000020: 61dd 233e 4cba c5bd edf1 143e b3fb 6cbd
00000030: 6285 d63c ba40 d5ba 160c 803d 2e3b 2ebd
00000040: 3ce6 ec3d 9b5e 42bc 88cd 12be 4a21 88bc
00000050: 6a8f 3fbd e790 92bd 1aa1 99bd e4af 5e3d
00000060: 445a 13be fda4 c0bd d4a9 c5bd 345e 5fbd
00000070: 4ad7 853d 92eb febd 134b 5f3e 5d0a 92bd
00000080: 947d 493d b7dc ddbb 49b3 abbd e9ff 823d
00000090: ca75 8dbd e815 fe3d b83b 6cbd 6853 2abe
000000a0: 7483 3d3d f7d7 65bc 9b02 7d3d dc94 f13c
000000b0: 9184 1cbd 392a 07be 7ea4 943d 1e23 613c
000000c0: 5bda b13d 33c5 1cbe 5638 8cbe 37fc 25be
000000d0: 2072 80bd e275 d73d 0cf4 cd3d a4ca 0b3d
000000e0: 5617 9d3d b833 24bb 3d31 ba3d 5197 c8bc
000000f0: 2729 c73d 3072 b1bb e4b8 4c3e 5930 113e
00000100: 9639 433d 2882 31bd cd78 0f3e 2de8 e3bd
00000110: 303e e5bd 0c41 e5bd 7b27 1c3e 7da7 563d
00000120: 6b86 273e 800d 1cbe 7335 3abe af48 14be
00000130: c66d 00be 5a51 853d 9d9f 683d 88c0 0f3e
00000140: 9149 c8bd a210 02be 2fc4 b23d 6ea8 9fbd
00000150: a867 ce3d 3f78 46bd 93c6 c13d 594e 13be
00000160: ce06 c4bd 961b 423d 91d9 fc3c 4544 53bd
00000170: d378 ca3d ffc9 e83d 1fee 09be 609a cebd
00000180: a5c0 253e c553 74bd 4059 80bd 4127 2fbe
00000190: 2a54 cfbd 8ee0 343d 8325 bfbc 3f66 03be
000001a0: 2ce0 873b 4a4d f7bd 8293 19be 755c c7bd
000001b0: 296e 1ebe 1886 e6bd d3f2 343e 94c2 083d
000001c0: a721 5f3d 7ad5 28be 0bc7 edbd 6b03 71bd
000001d0: 1673 e23c 6448 1fbe 22fe 9bbd bdbd d8bd
000001e0: 396c 003a 3bb7 86bd b4b3 48bc 0254 f5bd
000001f0: 6880 f8bd c936 d3bd 8dd9 77bd 07e0 0ebe
00000200: 7423 ba3e 7c6d a13d 0297 683e 48d1 473e
00000210: 4d8c c33d f5ff 683e f09a 9ebd bc0b 313e
00000220: 3d47 8bbe 0aa1 b7be 202c 47be 683b 7fbe
00000230: f1a7 33be 52b6 acbe 9b4d 7a3d 8a54 8abe
00000240: 643e dcbd 0b66 833e e935 9b3e 33da d83e
00000250: 4b3d 9e3e 058e 42be f546 9cbc a93a c0be
00000260: ab49 78be a5a9 a8be 938e 503d 3d19 40be
00000270: 7635 303e 41e1 083e 80cb 70be 2911 8cbe
00000280: 4f6a 1a3e 8140 ed3c 949f 523c 7da5 29be
00000290: 32bc 833d a91d 15bd 6e1a babd 185d 113e
000002a0: d1e2 f13c 4d8d dcbd 847c cbbd cd22 96bc
000002b0: 66e7 b53d ed83 61bd 89d0 e2bd d138 90bd
000002c0: 715b 11be 84bd 593d 75fe 013e 8a8a 34be
000002d0: 625b ff3c 22c8 a63d 619d b53c ee2c 95bd
000002e0: feb7 a83d fc02 aa3d 6743 663d 8cb9 27bd
000002f0: b739 68bd f5e4 133c 7966 28bd e221 80bd
00000300: 3527 573d 76b7 d83d 7002 c1bc d3ca 5abd
00000310: 2c10 04be 7020 783c ceb3 3cbb f784 7dbd
00000320: 81eb 20be 39cd a3bc 7436 203e c8f2 a9bc
00000330: 19c8 e8bd 2a93 34be 2e0c fabd bdae 0ebe
00000340: 1310 eabb d69e e23c 3c30 7bbc 41a7 6fbc
00000350: d63a c6bc bdc8 9ebd 4f3e ec3d 71e3 5a3e
00000360: d3b9 c83d dafd aebc a019 6a3d cde1 ac3d
00000370: 5d5b 5abc 8ff4 a13e 0e2a 403e 85ef a63e
00000380: 2d14 34be 464d f23d 8225 093e c0f1 833d
00000390: b370 fcbd bba7 32be 2505 13be 75fc 063e
000003a0: 1dd1 ad3d 1d54 183e 41a9 bd3d 2042 373d
000003b0: b3e6 e2ba 92aa 09be a317 1bbe f250 29be
000003c0: 7234 943d d8bf b1bd f1b8 11bd eb5a d0bd
000003d0: a7f1 03bd c1d0 febd ce8f ecbd 2d2f 703d
000003e0: 7331 57bd 8a80 df3d 554a 68bd 34ca 04be
000003f0: c782 ffbc 4f7f afbd 7e86 5dbd 6154 2cbe
0.06579602 0.13199258 -0.06144319 0.124276675 -0.07986105 0.026329951 -0.14030622 0.026247006
0.16002418 -0.09654674 0.14545412 -0.057857227 0.026186649 -0.00162699 0.06252305 -0.042536907
0.11567351 -0.011863376 -0.14336216 -0.016617436 -0.04676763 -0.07156544 -0.07501431 0.05436696
-0.14389902 -0.09406469 -0.09651533 -0.0545332 0.06535204 -0.12447275 0.21805982 -0.07130883
0.049192026 -0.006770696 -0.08383805 0.06396467 -0.06907232 0.12406522 -0.05767414 -0.1663338
0.04626794 -0.014028541 0.061770063 0.029489927 -0.038212363 -0.131997 0.07257937 0.013741283
0.08684226 -0.153096 -0.2738673 -0.16209494 -0.062717676 0.10520531 0.10056314 0.0341288
0.076704666 -0.002505524 0.09091423 -0.024486216 0.09724646 -0.0054152235 0.19992405 0.141786
0.04766234 -0.043337017 0.14010926 -0.111282684 -0.11193502 -0.11194047 0.15249436 0.052405823
0.1635987 -0.15239525 -0.18184452 -0.14480852 -0.12541875 0.06509657 0.056792844 0.14038289
-0.09779657 -0.12701657 0.08728825 -0.07795797 0.100783646 -0.04845452 0.09461703 -0.14385356
-0.095716104 0.04738959 0.030865462 -0.05157878 0.09886327 0.11366653 -0.13469742 -0.100880384
0.1618677 -0.0596502 -0.06267023 -0.17104818 -0.10123475 0.044159465 -0.023333317 -0.12831973
0.0041465964 -0.120752886 -0.14997676 -0.09734432 -0.1547171 -0.11256045 0.17670755 0.03338869
0.054475453 -0.16487685 -0.1161023 -0.05884115 0.027642768 -0.15554959 -0.07616831 -0.10583065
0.0004898939 -0.06577917 -0.012249876 -0.11978914 -0.121338665 -0.10313184 -0.060510207 -0.13952647
0.36355174 0.078822106 0.22713855 0.19513428 0.095482446 0.2275389 -0.07744396 0.17289633
-0.27202788 -0.3586505 -0.19450426 -0.24925005 -0.17544533 -0.3373285 0.061109167 -0.27017623
-0.107540876 0.2566379 0.30314568 0.42353973 0.30906138 -0.18999489 -0.019076804 -0.37544754
-0.24246852 -0.32941929 0.05091722 -0.18759628 0.17207894 0.13367178 -0.23515129 -0.27356842
0.15079616 0.028961422 0.012855429 -0.16567035 0.0643238 -0.03640524 -0.09087072 0.14195669
0.0295271 -0.107691385 -0.09935859 -0.018327141 0.088820264 -0.055057455 -0.11074931 -0.07042087
-0.14195038 0.05315925 0.12694724 -0.17630973 0.031171504 0.08143641 0.02216977 -0.0728396
0.08238219 0.083013505 0.056216624 -0.040948436 -0.056695666 0.009026756 -0.04111335 -0.06256463
0.052527625 0.105818674 -0.023560733 -0.053416084 -0.12896794 0.015144452 -0.0028793695 -0.061894383
-0.15714838 -0.019995319 0.15645772 -0.02074565 -0.113662906 -0.17634264 -0.12209354 -0.13933845
-0.0071430295 0.02766363 -0.015331324 -0.014627279 -0.024197977 -0.077531315 0.11535322 0.21375825
0.09801068 -0.02136128 0.057153344 0.084415056 -0.013327447 0.31631896 0.18766043 0.32604614
-0.17585821 0.11831145 0.13393214 0.064425945 -0.12326183 -0.17446797 -0.14357431 0.13182242
0.08487151 0.14875837 0.09260798 0.044740796 -0.0017311185 -0.13443974 -0.15145735 -0.16534784
0.07236566 -0.086791694 -0.035576764 -0.10173591 -0.03221288 -0.124421604 -0.11550866 0.05863874
-0.052537393 0.10913189 -0.056711514 -0.1296776 -0.03119029 -0.08569204 -0.05408334 -0.16829063

net.0.bias f4 [16]
00000000: b108 23be aa61 d4be d167 f2bd 0e7f 16be
00000010: 5a59 ff3e 6689 35be 71df 55be daba c2bb
00000020: c9a9 72bc c6e7 6f3d 77d9 85bc 2956 01be
00000030: 3132 0a3f db4f 23be fccc a1bd 5283 2fbe
-0.15921284 -0.41480762 -0.11836208 -0.14696905 0.49872857 -0.17728195 -0.20886017 -0.0059426846
-0.014810988 0.058570646 -0.016339047 -0.12630524 0.53982836 -0.15948431 -0.07900426 -0.17139938

net.2.weight f4 [1, 16]
00000000: a78d d93b 6bfe 653b be73 7d3d 644e f6bd
00000010: eef6 a2bd 661c 693e b97e 443d 60e1 19bc
00000020: c05b 8bbe d8ae 8bbe 4854 2ebe 500a 633e
00000030: 3a9a a7bc de5d 45bc 20ec a2be 626e 64bc
0.0066392007 0.0035094272 0.06187796 -0.120266706 -0.07957254 0.2276474 0.047972415 -0.0093921125
-0.27218437 -0.27281833 -0.17024338 0.22171903 -0.020459283 -0.012046305 -0.31820774 -0.013942333
