results/full_evaluation/phase_1_1_cross_validation/fold_1/temp_model_theta_20.pt (torch, 4821 bytes, 3 tensors)

net.0.weight f4 [16, 32]
0.04011975 0.06307071 -0.056133114 0.12002028 -0.08068068 -0.04469565 -0.12568681 0.011842039
0.117372006 -0.11553769 0.10245607 -0.066221334 0.04175863 -0.032741144 0.049376298 -0.03448773
0.1488898 0.008838084 -0.09122173 0.01744046 -0.07449121 0.0266006 -0.028923081 0.06602751
-0.17050503 -0.12377157 -0.0983245 -0.084659204 0.019156054 -0.13569708 0.23303148 -0.009354126
0.058680974 -0.038529783 -0.051835205 0.03877266 -0.04650579 0.04254171 -0.0006797564 -0.17376974
0.004204734 0.00753114 0.07411114 0.021264082 -0.035767384 -0.13478985 0.039713517 0.07396459
0.17059939 -0.11062776 -0.18848287 -0.05766585 -0.044575937 0.292147 0.19868045 0.11081964
0.11344329 0.0116443755 0.08402829 0.005475771 0.069726005 0.08758936 0.3268661 0.2566046
0.054167256 -0.03682992 0.14661714 -0.10477588 -0.10542926 -0.10543563 0.15900052 0.05891103
0.17010349 -0.14588961 -0.17534058 -0.13830368 -0.11891575 0.07160166 0.06329946 0.14688806
-0.09129197 -0.12051076 0.09379385 -0.07145393 0.107289985 -0.04194922 0.10112438 -0.13734983
-0.08921032 0.05389505 0.037371926 -0.045070764 0.105371185 0.12017442 -0.12819375 -0.094375454
0.1618677 -0.0596502 -0.06267023 -0.17104818 -0.10123475 0.044159465 -0.023333317 -0.12831973
0.0041465964 -0.120752886 -0.14997676 -0.09734432 -0.1547171 -0.11256045 0.17670755 0.03338869
0.054475453 -0.16487685 -0.1161023 -0.05884115 0.027642768 -0.15554959 -0.07616831 -0.10583065
0.0004898939 -0.06577917 -0.012249876 -0.11978914 -0.121338665 -0.10313184 -0.060510207 -0.13952647
0.45198578 0.16452242 -0.004527178 0.10477337 -0.12298501 0.105095044 -0.11469178 -0.037955545
-0.10161374 -0.4521856 -0.106956355 -0.24598429 -0.20306632 -0.38131368 -0.07444502 -0.1150745
-0.013872436 0.29545307 0.53067255 0.56345856 0.32882637 0.026526008 -0.07236945 -0.2227846
-0.050234653 -0.11978137 0.08631253 -0.2972749 0.012883087 -0.132254 -0.22476274 -0.23257847
0.1548357 0.033001296 0.016895013 -0.16163076 0.06836326 -0.03236569 -0.08683127 0.14599614
0.033566486 -0.10365195 -0.0953191 -0.014287812 0.09285953 -0.051017955 -0.106709875 -0.066381425
-0.137911 0.057198554 0.13098654 -0.17227043 0.035210736 0.08547569 0.026209261 -0.0688002
0.08642148 0.08705274 0.06025584 -0.03690923 -0.05265648 0.013065929 -0.03707405 -0.058525186
0.048452716 0.094733685 -0.010954367 -0.11017567 -0.07010465 -0.104731426 0.020805022 -0.062757105
-0.20637693 -0.021465693 0.14744638 -0.057958066 -0.1312959 -0.14878294 -0.16130741 -0.11650247
0.016178904 0.053852823 0.09635062 0.09270898 -0.07013499 0.030781886 0.11282447 0.21441807
0.090024605 -0.020309199 0.028440904 0.06232328 -0.05794274 0.32711825 0.17160265 0.2532331
-0.17585821 0.11831145 0.13393214 0.064425945 -0.12326183 -0.17446797 -0.14357431 0.13182242
0.08487151 0.14875837 0.09260798 0.044740796 -0.0017311185 -0.13443974 -0.15145735 -0.16534784
0.07236566 -0.086791694 -0.035576764 -0.10173591 -0.03221288 -0.124421604 -0.11550866 0.05863874
-0.052537393 0.10913189 -0.056711514 -0.1296776 -0.03119029 -0.08569204 -0.05408334 -0.16829063
00000000: 9b54 243d 372b 813d d6eb 65bd 31cd f53d
00000010: ea3b a5bd c912 37bd 0bb4 00be 1d05 423c
00000020: bc60 f03d 069f ecbd 7dd4 d13d 0d9f 87bd
00000030: 190b 2b3d 941b 06bd cd3e 4a3d 0243 0dbd
00000040: 9176 183e 9ccd 103c 75d2 babd 4cdf 8e3c
00000050: d98e 98bd 80e9 d93c 19f0 ecbc 6e39 873d
00000060: df98 2ebe f37b fdbd 5b5e c9bd ce61 adbd
00000070: 28ed 9c3c 2df4 0abe ce9f 6e3e 0c42 19bc
00000080: 765b 703d 68d1 1dbd 2751 54bd 15d0 1e3d
00000090: db7c 3ebd 3740 2e3d ae31 32ba b2f0 31be
000000a0: dec7 893b c8c7 f63b 95c7 973d 0332 ae3c
000000b0: d280 12bd 5a06 0abe a4aa 223d bf7a 973d
000000c0: 9bb1 2e3e cf90 e2bd a701 41be 0733 6cbd
000000d0: 4295 36bd 4b94 953e e372 4b3e 68f5 e23d
000000e0: f554 e83d 0dc8 3e3c 0617 ac3d 196e b33b
000000f0: 82cc 8e3d 0d62 b33d fe5a a73e ae61 833e
00000100: 7cde 5d3d f8da 16bd ce22 163e bd94 d6bd
00000110: 4ceb d7bd a3ee d7bd 08d1 223e b14c 713d
00000120: 9c2f 2e3e 1664 15be 7b8c 33be 7b9f 0dbe
00000130: 1a8a f3bd e4a3 923d 26a3 813d d369 163e
00000140: 49f7 babd 58ce f6bd fd16 c03d 7056 92bd
00000150: daba db3d f2d2 2bbd 4d1a cf3d 6fa5 0cbe
00000160: e6b3 b6bd 0ec1 5c3d 4e13 193d 1f9c 38bd
00000170: d9cc d73d 021e f63d 3945 03be eb47 c1bd
00000180: a5c0 253e c553 74bd 4059 80bd 4127 2fbe
00000190: 2a54 cfbd 8ee0 343d 8325 bfbc 3f66 03be
000001a0: 2ce0 873b 4a4d f7bd 8293 19be 755c c7bd
000001b0: 296e 1ebe 1886 e6bd d3f2 343e 94c2 083d
000001c0: a721 5f3d 7ad5 28be 0bc7 edbd 6b03 71bd
000001d0: 1673 e23c 6448 1fbe 22fe 9bbd bdbd d8bd
000001e0: 396c 003a 3bb7 86bd b4b3 48bc 0254 f5bd
000001f0: 6880 f8bd c936 d3bd 8dd9 77bd 07e0 0ebe
00000200: ae6a e73e 9178 283e b958 94bb 6c93 d63d
00000210: 91df fbbd 123c d73d 86e3 eabd 4677 1bbd
00000220: dd1a d0bd df84 e7be ef0b dbbd 4ee3 7bbe
00000230: 9ef0 4fbe 8c3b c3be a176 98bd 2eac ebbd
00000240: 3749 63bc a045 973e 28da 073f d23e 103f
00000250: ee5b a83e 124d d93c 6f36 94bd a521 64be
00000260: dac2 4dbd ef4f f5bd a0c4 b03d 6a34 98be
00000270: 9513 533c 986d 07be 3428 66be 0d29 6ebe
00000280: 408d 1e3e 5e2c 073d 6967 8a3c 8982 25be
00000290: 0902 8c3d e391 04bd 98d4 b1bd 0380 153e
000002a0: 037d 093d 7947 d4bd a936 c3bd 6d17 6abc
000002b0: 232d be3d 34f8 50bd b58a dabd fcf2 87bd
000002c0: 8b38 0dbe 0849 6a3d 5621 063e a967 30be
000002d0: 2239 103d e10d af3d ceb4 d63c 1fe7 8cbd
000002e0: bffd b03d b548 b23d d4ce 763d 222e 17bd
000002f0: 52ae 57bd 7a12 563c f6da 17bd 1bb8 6fbd
00000300: 5b76 463d bc03 c23d f279 33bc c8a3 e1bd
00000310: 0793 8fbd 6e7d d6bd 4b6f aa3c cc86 80bd
00000320: 7954 53be d2d8 afbc 2ffc 163e 7065 6dbd
00000330: 6f72 06be 8e5a 18be c52d 25be d998 eebd
00000340: 9f89 843c c794 5c3d 7953 c53d 35de bd3d
00000350: efa2 8fbd 4b2a fc3c 8410 e73d 6990 5b3e
00000360: d25e b83d 7a5f a6bc e6fc e83c b246 7f3d
00000370: 5e55 6dbd 0b7c a73e 9bb8 2f3e c5a7 813e
00000380: 2d14 34be 464d f23d 8225 093e c0f1 833d
00000390: b370 fcbd bba7 32be 2505 13be 75fc 063e
000003a0: 1dd1 ad3d 1d54 183e 41a9 bd3d 2042 373d
000003b0: b3e6 e2ba 92aa 09be a317 1bbe f250 29be
000003c0: 7234 943d d8bf b1bd f1b8 11bd eb5a d0bd
000003d0: a7f1 03bd c1d0 febd ce8f ecbd 2d2f 703d
000003e0: 7331 57bd 8a80 df3d 554a 68bd 34ca 04be
000003f0: c782 ffbc 4f7f afbd 7e86 5dbd 6154 2cbe

net.0.bias f4 [16]
-0.19106515 -0.5185974 -0.11185451 -0.14696905 0.42368302 -0.17324255 -0.20554313 -0.0059426846
0.37197965 -0.17035876 -0.016339047 -0.13938227 -0.081798956 -0.16017151 -0.0073881214 -0.22164233
00000000: 95a6 43be cdc2 04bf fa13 e5bd 0e7f 16be
00000010: fbec d83e 7f66 31be e679 52be daba c2bb
00000020: 1e74 be3e 8772 2ebe 77d9 85bc 3aba 0ebe
00000030: 3686 a7bd 0004 24be 0e18 f2bb 35f6 62be

net.2.weight f4 [1, 16]
0.002373577 0.03342397 0.06838274 -0.120266706 -0.08093326 0.23168454 0.021814778 -0.0093921125
-0.020739354 0.0071439333 -0.17024338 0.20989193 -0.34442315 -0.021866146 -0.20132631 -0.01764572
00000000: 048e 1b3b 93e7 083d 400c 8c3d 644e f6bd
00000010: 56c0 a5bd b63e 6d3e e8b4 b23c 60e1 19bc
00000020: 94e5 a9bc a817 ea3b 4854 2ebe e9ed 563e
00000030: 3b58 b0be a220 b3bc 7c28 4ebe c28d 90bc
