results/full_evaluation/phase_1_1_cross_validation/fold_1/temp_model_theta_14.pt (torch, 4821 bytes, 3 tensors)

net.0.weight f4 [16, 32]
000000 3a 7d 81 3d 50 aa 3a 3d 40 01 ca bd ad 84 d8 3d
       0.06322713 0.04557258 -0.0986352 0.10572181
000010 8c d1 df bd 86 6e 1b bd 19 f4 36 be 75 1d 24 3c
       -0.1092864 -0.0379472 -0.17866553 0.010016789
000020 ae b9 19 3e a9 66 eb bd 7a fe c7 3d 04 9a ab bd
       0.15012237 -0.1149419 0.097653344 -0.083789855
000030 21 29 56 3d f8 b9 a3 3b 83 ae b3 3d 92 44 fc bc
       0.052285317 0.0049965344 0.0877352 -0.030794416
000040 0a f8 0d 3e 59 45 64 3d d7 98 d3 bd 99 15 05 3d
       0.1386415 0.055730198 -0.10331886 0.0324913
000050 3a 27 96 bd 92 5a 03 bc f2 32 91 bd 1e cb b1 3d
       -0.073317006 -0.008017199 -0.07089795 0.0868132
000060 dc 91 47 be 35 ee 0d be b2 47 e3 bd f7 15 b7 bd
       -0.19489235 -0.138604 -0.11097659 -0.08939736
000070 99 e0 9b 3d be 4e cd bd e2 dd 87 3e 44 6d bc bc
       0.07611198 -0.100247845 0.2653647 -0.02300132
000080 3d ec 22 3d f0 48 f0 bd b4 35 f8 bd 79 94 5f 3d
       0.039776076 -0.11732662 -0.12119618 0.054584954
000090 b2 22 8e bd 11 18 78 3d 9c 2f ad bd bc 6a 25 be
       -0.06940211 0.060569827 -0.084563464 -0.16153997
0000a0 ac 29 54 3d a2 b4 b8 bc 15 03 d1 3b 28 67 c4 3c
       0.051797554 -0.02254707 0.0063785412 0.02397497
0000b0 55 6b b4 3c c6 cf c9 bd 97 ec ca 3d 2a 65 0e 3d
       0.022023836 -0.09854083 0.09908407 0.034764446
0000c0 5d 7e e7 3d 63 38 24 bd 86 96 3d be ed 52 9f bd
       0.11303399 -0.040092837 -0.18514451 -0.07779489
0000d0 70 49 e0 bd 74 cd 56 3e 00 70 eb 3d 91 56 b7 3d
       -0.10951507 0.20976812 0.11495972 0.08952058
0000e0 3d 95 5b 3c 6d b6 7a bd 28 69 89 3d 2a a9 ca bd
       0.01340228 -0.06120913 0.0670951 -0.09895547
0000f0 02 68 9d 3d d9 47 6e bc fa 10 66 3e 3f e0 0c 3e
       0.076858535 -0.014543497 0.22467414 0.13757418
000100 d9 f7 14 3d 82 c1 5f bd 37 e9 03 3e 30 08 fb bd
       0.03636918 -0.054627903 0.12881933 -0.12257421
000110 be 5f fc bd a7 63 fc bd 72 96 10 3e 2d 62 28 3d
       -0.12322949 -0.12323695 0.1411989 0.041109253
000120 f9 f4 1b 3e 68 9e 27 be 0b c6 45 be 11 d9 1f be
       0.15230168 -0.16369021 -0.19313829 -0.15610148
000130 5d ff 0b be 1a 5d 5c 3d dc 5a 3a 3d 44 2f 04 3e
       -0.13671632 0.053799726 0.045496807 0.12908655
000140 2c 6b df bd f3 a0 0d be 7c a3 9b 3d 27 ca b6 bd
       -0.10909113 -0.13830929 0.075995415 -0.08925276
000150 d2 46 b7 3d dd ba 74 bd 3a a6 aa 3d a8 df 1e be
       0.08949055 -0.05974852 0.083324865 -0.15515006
000160 98 28 db bd 65 d7 13 3d 5e 53 a0 3c d8 c1 80 bd
       -0.10701102 0.036094088 0.019571003 -0.06286973
000170 1b 59 b3 3d 5c aa d1 3d 63 7e 15 be 44 ba e5 bd
       0.0875723 0.102375716 -0.14598994 -0.11217168
000180 a5 c0 25 3e c5 53 74 bd 40 59 80 bd 41 27 2f be
       0.1618677 -0.0596502 -0.06267023 -0.17104818
000190 2a 54 cf bd 8e e0 34 3d 83 25 bf bc 3f 66 03 be
       -0.10123475 0.044159465 -0.023333317 -0.12831973
0001a0 2c e0 87 3b 4a 4d f7 bd 82 93 19 be 75 5c c7 bd
       0.0041465964 -0.120752886 -0.14997676 -0.09734432
0001b0 29 6e 1e be 18 86 e6 bd d3 f2 34 3e 94 c2 08 3d
       -0.1547171 -0.11256045 0.17670755 0.03338869
0001c0 a7 21 5f 3d 7a d5 28 be 0b c7 ed bd 6b 03 71 bd
       0.054475453 -0.16487685 -0.1161023 -0.05884115
0001d0 16 73 e2 3c 64 48 1f be 22 fe 9b bd bd bd d8 bd
       0.027642768 -0.15554959 -0.07616831 -0.10583065
0001e0 39 6c 00 3a 3b b7 86 bd b4 b3 48 bc 02 54 f5 bd
       0.0004898939 -0.06577917 -0.012249876 -0.11978914
0001f0 68 80 f8 bd c9 36 d3 bd 8d d9 77 bd 07 e0 0e be
       -0.121338665 -0.10313184 -0.060510207 -0.13952647
000200 63 1c 5b 3e f7 b9 83 3d 85 a5 8a 3e eb d1 85 3d
       0.21397547 0.06431954 0.27079406 0.06534179
000210 c4 76 4a be 6a 75 b4 3d 11 eb 4f be 8a 64 6b be
       -0.19771868 0.088114575 -0.20304514 -0.22987571
000220 c0 09 e1 be 2e 13 15 bf e0 99 78 be 48 53 ae be
       -0.4395275 -0.5823239 -0.24277449 -0.34047914
000230 45 c6 00 be 56 95 40 be f9 75 74 3e 0a 0d 88 bd
       -0.12575634 -0.18806967 0.23873128 -0.06643112
000240 2a 7b 37 bd 6f 64 27 3e ea f3 f9 3e 50 ab 1b 3f
       -0.044795193 0.16346906 0.48818904 0.6080828
000250 7b 9f c2 3e b1 a8 03 bd 29 4c 27 be ea d6 8c be
       0.380123 -0.0321433 -0.16337647 -0.27507716
000260 f0 77 7b 3c c8 f7 ca 3d f1 d4 a3 3e 1f 39 8f bd
       0.01534842 0.09910542 0.319984 -0.06993317
000270 ec 6e db 3a bb 45 37 be 16 47 c7 3d 02 d9 e2 3c
       0.0016741431 -0.17897694 0.097303554 0.027691368
000280 ec 6a 1e 3e bc a2 06 3d 50 54 89 3c f0 a4 25 be
       0.15470475 0.03287004 0.016763836 -0.161762
000290 4a bd 8b 3d 69 1b 05 bd 55 19 b2 bd a5 5d 15 3e
       0.068232134 -0.032496843 -0.08696238 0.14586504
0002a0 a3 f3 08 3d 29 8c d4 bd 64 7b c3 bd b0 3c 6c bc
       0.033435475 -0.10378296 -0.09545019 -0.014418766
0002b0 82 e8 bd 3d b7 81 51 bd 72 cf da bd ba 37 88 bd
       0.09272863 -0.051149096 -0.10684098 -0.06651254
0002c0 e3 5a 0d be c8 bf 69 3d 05 ff 05 3e f9 89 30 be
       -0.13804202 0.057067662 0.13085563 -0.17240132
0002d0 ea af 0f 3d 37 c9 ae 3d ad a1 d5 3c d0 2b 8d bd
       0.035079874 0.085344724 0.02607807 -0.06893122
0002e0 16 b9 b0 3d 0e 04 b2 3d 88 45 76 3d 6c b7 17 bd
       0.08629052 0.086921796 0.060124904 -0.03704016
0002f0 83 37 58 bd 98 ed 53 3c 3c 64 18 bd 8c 41 70 bd
       -0.052787315 0.012935065 -0.037204966 -0.05865626
000300 b2 49 3e 3d 16 17 00 bb 31 5d 83 bd 73 0a 8b bd
       0.046457 -0.001954501 -0.06414259 -0.067891024
000310 d2 34 df bd 91 37 a5 bd 53 26 79 bd 1f 37 6c bd
       -0.108987466 -0.08067239 -0.060827564 -0.057669755
000320 fd 2e 17 be 59 59 8f bc 46 b3 cf 3d eb 09 31 bd
       -0.14764018 -0.017498659 0.101416156 -0.04322235
000330 d8 d9 84 bd 4c 20 fa bd 41 8f db bd 7e ef 0d be
       -0.06486863 -0.122131914 -0.10720683 -0.1386089
000340 61 69 ca bb d4 a3 19 3e 6d 73 b8 3d b2 24 85 3d
       -0.006177113 0.15003902 0.09006391 0.0650114
000350 bd 50 07 be e4 66 ab bc c4 5a 95 3d d5 26 6c 3e
       -0.13214393 -0.020923086 0.07292703 0.23061688
000360 53 33 12 bc df 85 f4 bd f0 c1 64 bc 97 50 07 bd
       -0.008923369 -0.119395964 -0.013962254 -0.03303584
000370 ac e5 44 bd 2c 8b 8b 3e 5b 47 20 3e b8 4f 6f 3e
       -0.048070595 0.27254617 0.1565222 0.23370254
000380 2d 14 34 be 46 4d f2 3d 82 25 09 3e c0 f1 83 3d
       -0.17585821 0.11831145 0.13393214 0.064425945
000390 b3 70 fc bd bb a7 32 be 25 05 13 be 75 fc 06 3e
       -0.12326183 -0.17446797 -0.14357431 0.13182242
0003a0 1d d1 ad 3d 1d 54 18 3e 41 a9 bd 3d 20 42 37 3d
       0.08487151 0.14875837 0.09260798 0.044740796
0003b0 b3 e6 e2 ba 92 aa 09 be a3 17 1b be f2 50 29 be
       -0.0017311185 -0.13443974 -0.15145735 -0.16534784
0003c0 72 34 94 3d d8 bf b1 bd f1 b8 11 bd eb 5a d0 bd
       0.07236566 -0.086791694 -0.035576764 -0.10173591
0003d0 a7 f1 03 bd c1 d0 fe bd ce 8f ec bd 2d 2f 70 3d
       -0.03221288 -0.124421604 -0.11550866 0.05863874
0003e0 73 31 57 bd 8a 80 df 3d 55 4a 68 bd 34 ca 04 be
       -0.052537393 0.10913189 -0.056711514 -0.1296776
0003f0 c7 82 ff bc 4f 7f af bd 7e 86 5d bd 61 54 2c be
       -0.03119029 -0.08569204 -0.05408334 -0.16829063

net.0.bias f4 [16]
000000 a0 9f 60 be 34 20 f4 be 6a c4 04 be 0e 7f 16 be
       -0.21935892 -0.4768082 -0.12965551 -0.14696905
000010 88 61 83 bd d8 88 31 be 47 1f 78 be da ba c2 bb
       -0.06415087 -0.17337358 -0.24230681 -0.0059426846
000020 80 fe 01 3f 0a dc 49 bd 77 d9 85 bc 21 78 18 be
       0.5077896 -0.04928211 -0.016339047 -0.14889576
000030 14 84 ec 3e f7 27 23 be ad 88 86 be a1 fd 6f be
       0.46194518 -0.15933214 -0.2627615 -0.23436595

net.2.weight f4 [1, 16]
000000 63 d4 3a bc 7a 94 31 3c c8 37 4f 3d 64 4e f6 bd
       -0.011403176 0.010838622 0.050590307 -0.120266706
000010 71 3f 20 be 5a 1c 6d 3e 07 68 0a 3c 60 e1 19 bc
       -0.15649201 0.23155347 0.008447654 -0.0093921125
000020 92 3d d5 bd 71 39 85 be 48 54 2e be d0 e7 66 3e
       -0.10412134 -0.26020387 -0.17024338 0.22549367
000030 73 3f c1 bc c5 25 49 bc 75 5b 30 be 72 69 d8 bb
       -0.023589825 -0.012277071 -0.17222388 -0.006604367
