results/full_evaluation/phase_1_1_cross_validation/fold_1/temp_model_theta_18.pt (torch, 4821 bytes, 3 tensors)

net.0.weight f4 [16, 32]
000000 bf 93 37 3d e2 92 8d 3d 37 8e 3a bd 67 92 25 3e
       0.044818636 0.06912781 -0.045545783 0.1616913
000010 9e 4e aa bd 53 ff 1b bd 63 3f 04 be a2 b9 01 3d
       -0.08315776 -0.038085293 -0.12914805 0.031671174
000020 1d 36 e0 3d 19 4d dd bd 97 71 17 3e 14 23 08 bd
       0.10947821 -0.10805721 0.14789425 -0.033236578
000030 f5 fa dd 3c 9a bb a0 bc c6 0e bf 3d 33 3a 16 bd
       0.027097205 -0.019620705 0.0932899 -0.036676597
000040 0a c9 2f 3e 43 cd 23 3d d4 b1 f5 bd 8f 76 d9 3c
       0.17166534 0.039990675 -0.11996809 0.026545791
000050 fc 05 6d bd 3d d7 9f bb c8 39 6c bd 31 73 c3 3d
       -0.057867035 -0.0048779533 -0.057672292 0.095434554
000060 2d 10 34 be 57 50 0b be b9 56 d3 bd b3 8c cb bd
       -0.17584296 -0.13604866 -0.103192754 -0.099389456
000070 b4 4c a9 3c 7c be 22 be aa f0 5e 3e 1e 28 28 bd
       0.020666458 -0.15892977 0.21771494 -0.041053884
000080 a4 97 22 3d a1 5b 6e bd d2 05 7d bd b5 1d ea 3d
       0.039695397 -0.058192853 -0.06177313 0.114314474
000090 e7 21 b1 bc aa f6 7c 3d 4f 54 f8 bc ae 1f 12 be
       -0.021622611 0.061758675 -0.030313639 -0.14269897
0000a0 e0 e9 34 bc 01 63 69 bc fa 7f bd 3d 95 ac d5 3d
       -0.011042088 -0.014244796 0.09252925 0.10433308
0000b0 f3 53 5b ba 35 eb d8 bd 1b 43 05 3e c8 a2 9d 3c
       -0.00083666964 -0.10591737 0.1301388 0.01924266
0000c0 a6 c2 05 3e d9 d8 db bd 8e 7c 73 be 33 aa d5 bd
       0.13062534 -0.1073472 -0.23777983 -0.104328535
0000d0 dc b0 e8 bd f3 8c 20 3e 32 2d 85 3d 6f 7c 4e 3d
       -0.11361858 0.15678768 0.06502761 0.050411638
0000e0 a1 76 e6 3b 41 9d 9c bd 6e 51 81 3d a7 82 ff bd
       0.0070331846 -0.07647181 0.063143596 -0.12476092
0000f0 fa 38 30 3c 3e d3 d4 bd 08 25 07 3e 04 c0 a1 3d
       0.010755772 -0.10391854 0.1319772 0.07897952
000100 7c de 5d 3d f8 da 16 bd ce 22 16 3e bd 94 d6 bd
       0.054167256 -0.03682992 0.14661714 -0.10477588
000110 4c eb d7 bd a3 ee d7 bd 08 d1 22 3e b1 4c 71 3d
       -0.10542926 -0.10543563 0.15900052 0.05891103
000120 9c 2f 2e 3e 16 64 15 be 7b 8c 33 be 7b 9f 0d be
       0.17010349 -0.14588961 -0.17534058 -0.13830368
000130 1a 8a f3 bd e4 a3 92 3d 26 a3 81 3d d3 69 16 3e
       -0.11891575 0.07160166 0.06329946 0.14688806
000140 49 f7 ba bd 58 ce f6 bd fd 16 c0 3d 70 56 92 bd
       -0.09129197 -0.12051076 0.09379385 -0.07145393
000150 da ba db 3d f2 d2 2b bd 4d 1a cf 3d 6f a5 0c be
       0.107289985 -0.04194922 0.10112438 -0.13734983
000160 e6 b3 b6 bd 0e c1 5c 3d 4e 13 19 3d 1f 9c 38 bd
       -0.08921032 0.05389505 0.037371926 -0.045070764
000170 d9 cc d7 3d 02 1e f6 3d 39 45 03 be eb 47 c1 bd
       0.105371185 0.12017442 -0.12819375 -0.094375454
000180 a5 c0 25 3e c5 53 74 bd 40 59 80 bd 41 27 2f be
       0.1618677 -0.0596502 -0.06267023 -0.17104818
000190 2a 54 cf bd 8e e0 34 3d 83 25 bf bc 3f 66 03 be
       -0.10123475 0.044159465 -0.023333317 -0.12831973
0001a0 2c e0 87 3b 4a 4d f7 bd 82 93 19 be 75 5c c7 bd
       0.0041465964 -0.120752886 -0.14997676 -0.09734432
0001b0 29 6e 1e be 18 86 e6 bd d3 f2 34 3e 94 c2 08 3d
       -0.1547171 -0.11256045 0.17670755 0.03338869
0001c0 a7 21 5f 3d 7a d5 28 be 0b c7 ed bd 6b 03 71 bd
       0.054475453 -0.16487685 -0.1161023 -0.05884115
0001d0 16 73 e2 3c 64 48 1f be 22 fe 9b bd bd bd d8 bd
       0.027642768 -0.15554959 -0.07616831 -0.10583065
0001e0 39 6c 00 3a 3b b7 86 bd b4 b3 48 bc 02 54 f5 bd
       0.0004898939 -0.06577917 -0.012249876 -0.11978914
0001f0 68 80 f8 bd c9 36 d3 bd 8d d9 77 bd 07 e0 0e be
       -0.121338665 -0.10313184 -0.060510207 -0.13952647
000200 3a db 95 3e 77 21 c7 3d 46 12 b7 3d 79 a4 c3 bc
       0.2926882 0.0972318 0.08939032 -0.023882138
000210 35 cf f1 bd 12 47 75 3e 58 2e 6e be fe f9 ac be
       -0.118071 0.23952892 -0.23259866 -0.3378448
000220 6c d2 c0 be a7 b3 07 bf cf 44 b2 be 84 e9 01 be
       -0.3766054 -0.530085 -0.34818122 -0.12686735
000230 b9 75 ff bd e6 38 0a bf 52 f9 8e bc 66 12 f6 3c
       -0.12473626 -0.5399307 -0.01745287 0.03003807
000240 6a 6a 13 be 0f 1d 83 3e 7f c1 e8 3e 21 20 d9 3e
       -0.14396062 0.25608107 0.45460126 0.42407325
000250 e3 d4 d6 3e 51 69 27 3e 46 93 75 3e d1 a5 29 be
       0.41959295 0.16348769 0.23981962 -0.1656716
000260 dc 11 40 be 47 86 93 be a5 92 37 3e fa 5f 21 3d
       -0.18756813 -0.28813383 0.17927034 0.03939817
000270 cc cf 2d 3e e4 21 b4 3d 30 e2 dc 3d 1b a2 0e bd
       0.169738 0.087955266 0.10785329 -0.034822565
000280 30 f0 37 3e f5 36 e1 3c ef 24 e1 3d 6f 44 7a bd
       0.17962718 0.027492026 0.10993373 -0.06110042
000290 0d 6a bb 3d 7e f0 ac bc 1a 60 10 bd 0a 2b 25 3e
       0.09151087 -0.02111077 -0.0352479 0.161297
0002a0 82 1f 20 3d 77 89 82 3d 1b 3d 87 3d 0e e3 49 3d
       0.03909255 0.063738756 0.06603452 0.0492888
0002b0 9c b3 53 3d 63 42 ee 3c f2 41 97 3d 8b 3f 28 3d
       0.05168496 0.02908439 0.07385625 0.041076224
0002c0 4d 72 a0 3d 10 ef 49 3e 1b 16 1f 3e 86 df 07 bd
       0.07834301 0.19720101 0.15535776 -0.033172153
0002d0 04 b9 71 3e fe af 4d 3e be 71 1f 3e 1f f9 ef 3d
       0.23605734 0.20086667 0.15570733 0.11717438
0002e0 91 01 42 3e f2 9a 1d 3e 01 bd e8 3d 40 ac 0e 3e
       0.1894591 0.15391138 0.11364175 0.13932896
0002f0 d4 cf 04 3e 38 72 86 3e 5b 63 b6 3e 21 d0 cd 3e
       0.12969905 0.26259017 0.35622677 0.40197852
000300 19 80 9b 3c 87 b3 65 3d 6d 35 20 bd e2 03 6c bd
       0.01898198 0.056079414 -0.03911345 -0.05762089
000310 d0 f4 7e bd 0b 67 e5 bd eb c1 68 bc 8c e6 1d bd
       -0.06224519 -0.112012945 -0.01420639 -0.038549945
000320 b7 50 6f be 5f 30 2c bd 72 2e 28 3e 13 a4 83 3c
       -0.23370634 -0.042038318 0.16423967 0.016069448
000330 f9 11 ee bd 25 07 0e be b3 63 9f bd de a4 26 be
       -0.11624522 -0.13869913 -0.07782688 -0.1627383
000340 9a 6e 30 3b e3 47 5b 3d 6e dd 13 3d 30 d9 85 3d
       0.0026921392 0.053535353 0.036099844 0.06535566
000350 c1 19 f5 bd 67 e7 d9 bd 3a f7 97 bc b3 03 3f 3e
       -0.11967803 -0.106398396 -0.018550504 0.18653755
000360 9e c0 36 3c ac 77 c2 bd ea 21 c7 3c 29 42 ab bc
       0.011154322 -0.09495482 0.024308164 -0.020905571
000370 58 44 89 bd 43 65 4b 3e e1 01 4f 3d dd f0 0b 3e
       -0.06702489 0.19862847 0.0505389 0.13666101
000380 2d 14 34 be 46 4d f2 3d 82 25 09 3e c0 f1 83 3d
       -0.17585821 0.11831145 0.13393214 0.064425945
000390 b3 70 fc bd bb a7 32 be 25 05 13 be 75 fc 06 3e
       -0.12326183 -0.17446797 -0.14357431 0.13182242
0003a0 1d d1 ad 3d 1d 54 18 3e 41 a9 bd 3d 20 42 37 3d
       0.08487151 0.14875837 0.09260798 0.044740796
0003b0 b3 e6 e2 ba 92 aa 09 be a3 17 1b be f2 50 29 be
       -0.0017311185 -0.13443974 -0.15145735 -0.16534784
0003c0 72 34 94 3d d8 bf b1 bd f1 b8 11 bd eb 5a d0 bd
       0.07236566 -0.086791694 -0.035576764 -0.10173591
0003d0 a7 f1 03 bd c1 d0 fe bd ce 8f ec bd 2d 2f 70 3d
       -0.03221288 -0.124421604 -0.11550866 0.05863874
0003e0 73 31 57 bd 8a 80 df 3d 55 4a 68 bd 34 ca 04 be
       -0.052537393 0.10913189 -0.056711514 -0.1296776
0003f0 c7 82 ff bc 4f 7f af bd 7e 86 5d bd 61 54 2c be
       -0.03119029 -0.08569204 -0.05408334 -0.16829063

net.0.bias f4 [16]
000000 f6 c2 0d be b8 41 a9 be fa 13 e5 bd 0e 7f 16 be
       -0.13843903 -0.33057952 -0.11185451 -0.14696905
000010 d1 3f bc 3c 5e 6c d8 be 67 d3 e1 bd da ba c2 bb
       0.022979649 -0.42270178 -0.1102665 -0.0059426846
000020 81 36 ea 3e bf c4 f3 3c 77 d9 85 bc a6 d5 08 be
       0.45744708 0.029756902 -0.016339047 -0.1336275
000030 17 7d cd 3e 1a c1 18 be 76 7c 86 be 98 32 00 be
       0.40134498 -0.14917412 -0.2626683 -0.125193

net.2.weight f4 [1, 16]
000000 98 2e 83 bb fc 67 9f 3a 40 0c 8c 3d 64 4e f6 bd
       -0.004003357 0.0012161727 0.06838274 -0.120266706
000010 2e 35 19 be 20 3f 65 3e 36 46 b3 bb 60 e1 19 bc
       -0.14961693 0.22387362 -0.0054710163 -0.0093921125
000020 8b 13 4c bd 28 3b 9f be 48 54 2e be 25 6a 9d 3d
       -0.049823325 -0.3109982 -0.17024338 0.07686261
000030 cf 89 86 bd 60 38 0c bd 6a 17 69 be fd 05 67 3c
       -0.06569254 -0.03423345 -0.22762838 0.014100549
