results/full_evaluation/phase_1_1_cross_validation/fold_1/temp_model_theta_4.pt (torch, 4811 bytes, 3 tensors)

net.0.weight f4 [16, 32]
00000000: 3140 123e 3c06 183e be9b 2cbd 9918 1f3e
00000010: 4314 4ebd d57c 233c 1f38 dfbd 7f49 b23d
00000020: abbf 0c3e e749 1dbe 98d6 eb3d f069 0ebd
00000030: 50c5 493d 31c3 69bd 14d9 b03c f6b0 8cbd
00000040: d405 d13d fca3 6abb 8d5c e0bd a637 923c
00000050: 6d3e dcbd c80b 7abd b478 01be a73a 5b3d
00000060: 45c0 50be 57a0 01be 6524 9cbd 8c1c ddbd
00000070: 8db2 493d 9ed6 f1bd 299b 7e3e af52 4fbd
00000080: 1738 1b3e 37f8 1a3d 5ee8 55bd 54b5 d83d
00000090: 9bb3 8b3c f170 ea3d 6568 02bc a5e6 a2bd
000000a0: c7ec 923c 773d afbd 6019 a73c f5c9 903d
000000b0: 21a7 633a 0bac 33be fee6 d43c d14d a1bc
000000c0: 67fc 453d 52ba 14be bc4c 55be 40c3 cbbd
000000d0: aa55 26be 6728 d13d c845 e1bb 7222 e53b
000000e0: b861 17bc 026d 37bd 71de f43d d81d ebbd
000000f0: 3189 803d 8858 21bd 1f6b 323e b345 923d
00000100: 7cde 5d3d f8da 16bd ce22 163e bd94 d6bd
00000110: 4ceb d7bd a3ee d7bd 08d1 223e b14c 713d
00000120: 9c2f 2e3e 1664 15be 7b8c 33be 7b9f 0dbe
00000130: 1a8a f3bd e4a3 923d 26a3 813d d369 163e
00000140: 49f7 babd 58ce f6bd fd16 c03d 7056 92bd
00000150: daba db3d f2d2 2bbd 4d1a cf3d 6fa5 0cbe
00000160: e6b3 b6bd 0ec1 5c3d 4e13 193d 1f9c 38bd
00000170: d9cc d73d 021e f63d 3945 03be eb47 c1bd
00000180: a5c0 253e c553 74bd 4059 80bd 4127 2fbe
00000190: 2a54 cfbd 8ee0 343d 8325 bfbc 3f66 03be
000001a0: 2ce0 873b 4a4d f7bd 8293 19be 755c c7bd
000001b0: 296e 1ebe 1886 e6bd d3f2 343e 94c2 083d
000001c0: a721 5f3d 7ad5 28be 0bc7 edbd 6b03 71bd
000001d0: 1673 e23c 6448 1fbe 22fe 9bbd bdbd d8bd
000001e0: 396c 003a 3bb7 86bd b4b3 48bc 0254 f5bd
000001f0: 6880 f8bd c936 d3bd 8dd9 77bd 07e0 0ebe
00000200: d83b c73e 54c8 613e a533 dd3e b712 d93e
00000210: 7fef 8b3e 34c1 093f 74b0 523e c51c 813a
00000220: 4cce 46be 4995 6ebe 90af 1cbd b799 b6bd
00000230: e5e2 c2bb afa2 81be b51b aebc 29ff bfbe
00000240: 3c59 91be 3de4 56be 9808 36be 647b 1bbe
00000250: 9c33 14be 8f57 c9be 2ab2 31be 3f12 98be
00000260: 3de3 87be 6ae2 93be 4f61 b63d d55f d9bd
00000270: afd4 5e3e 60f4 753e 5aea 5e3e 1ce3 8f3d
00000280: eda2 1b3e c700 f73c 1e0e 663c 2d73 28be
00000290: ce6f 863d 3c0f 0fbd e7bc b6bd 59dc 133e
000002a0: 864e 083d d808 d2bd 5623 bebd f88a 3ebc
000002b0: cddc c23d d00c 49bd b657 d7bd a482 85bd
000002c0: 4f61 0cbe 9120 6c3d 9339 063e 04b8 30be
000002d0: 917a 0d3d ec0a ad3d 6823 cc3c c72a 90bd
000002e0: 5628 ad3d 88df ad3d ffc4 753d f76b 0bbd
000002f0: 9d2d 4abd ec74 853c 41b1 0abd 8f8f 62bd
00000300: 3d4c 4c3e a246 613e a26c 333d c1e4 a43b
00000310: 6db1 1e3d c1f9 28bc c066 693d 51b9 ac3d
00000320: d6fb 01be f7e8 1ebd ef29 233e ac38 ca3c
00000330: 86a3 93bd 9cef 2dbe 32fd 14be 2fd1 2dbe
00000340: d1b2 95bd e4a0 0c3d e609 b33d 743f 893d
00000350: d2a4 12be 605e ddbd e41f 14bd cf7e 283e
00000360: 3992 e73c bcbc 4a3a cd5d 1c3e de25 643d
00000370: 7297 a33d fb63 ba3e 64dd 6a3e a4cc 973e
00000380: 2d14 34be 464d f23d 8225 093e c0f1 833d
00000390: b370 fcbd bba7 32be 2505 13be 75fc 063e
000003a0: 1dd1 ad3d 1d54 183e 41a9 bd3d 2042 373d
000003b0: b3e6 e2ba 92aa 09be a317 1bbe f250 29be
000003c0: 7234 943d d8bf b1bd f1b8 11bd eb5a d0bd
000003d0: a7f1 03bd c1d0 febd ce8f ecbd 2d2f 703d
000003e0: 7331 57bd 8a80 df3d 554a 68bd 34ca 04be
000003f0: c782 ffbc 4f7f afbd 7e86 5dbd 6154 2cbe
0.142823 0.14846128 -0.042140715 0.15536727 -0.05031229 0.009978493 -0.10899376 0.087054245
0.1374499 -0.15360223 0.1151554 -0.034769 0.049260437 -0.057070915 0.021587886 -0.0686969
0.1020619 -0.0035803309 -0.10955153 0.0178488 -0.10754094 -0.06104639 -0.12643701 0.053522732
-0.20385845 -0.12658821 -0.07624129 -0.107964605 0.049242545 -0.11808513 0.24863876 -0.050615963
0.15158115 0.037834372 -0.052223556 0.105814606 0.017053416 0.11447323 -0.00795946 -0.07954148
0.01793517 -0.08556645 0.020397842 0.0706977 0.0008684267 -0.17546098 0.025989052 -0.019690426
0.048336413 -0.145242 -0.20830053 -0.0994935 -0.16243616 0.10212784 -0.0068747737 0.0069926316
-0.009239607 -0.044781692 0.1195649 -0.114803016 0.06276167 -0.03939107 0.17423676 0.071422
0.054167256 -0.03682992 0.14661714 -0.10477588 -0.10542926 -0.10543563 0.15900052 0.05891103
0.17010349 -0.14588961 -0.17534058 -0.13830368 -0.11891575 0.07160166 0.06329946 0.14688806
-0.09129197 -0.12051076 0.09379385 -0.07145393 0.107289985 -0.04194922 0.10112438 -0.13734983
-0.08921032 0.05389505 0.037371926 -0.045070764 0.105371185 0.12017442 -0.12819375 -0.094375454
0.1618677 -0.0596502 -0.06267023 -0.17104818 -0.10123475 0.044159465 -0.023333317 -0.12831973
0.0041465964 -0.120752886 -0.14997676 -0.09734432 -0.1547171 -0.11256045 0.17670755 0.03338869
0.054475453 -0.16487685 -0.1161023 -0.05884115 0.027642768 -0.15554959 -0.07616831 -0.10583065
0.0004898939 -0.06577917 -0.012249876 -0.11978914 -0.121338665 -0.10313184 -0.060510207 -0.13952647
0.38912845 0.22049075 0.43203464 0.4239709 0.2733116 0.5381043 0.20575124 0.0009850493
-0.19414634 -0.23299135 -0.038253367 -0.089160375 -0.005947458 -0.2531943 -0.021253446 -0.3749936
-0.28388393 -0.20985503 -0.17776716 -0.15183789 -0.14472812 -0.39324614 -0.1735312 -0.2970142
-0.26540557 -0.28883678 0.08905279 -0.10613982 0.2176082 0.24019003 0.21769086 0.070257396
0.1519887 0.030151738 0.014041452 -0.16450186 0.06564294 -0.034926638 -0.08922749 0.14439525
0.03327801 -0.10255593 -0.092840835 -0.011629812 0.09514771 -0.049084485 -0.105147764 -0.06519058
-0.13708995 0.057648245 0.131079 -0.17257696 0.034540717 0.08449349 0.024919227 -0.07039409
0.08454959 0.08489901 0.060002323 -0.03403851 -0.049359906 0.016291104 -0.03386045 -0.05531269
0.19950958 0.219996 0.043804772 0.0050321524 0.038743425 -0.010313452 0.056982756 0.08433784
-0.12693724 -0.03879639 0.15933965 0.024685226 -0.07208924 -0.16985935 -0.14549711 -0.16974328
-0.07309497 0.034333125 0.08742122 0.06701556 -0.14320686 -0.10809016 -0.036163226 0.16454624
0.028267967 0.0007733812 0.15270157 0.055700175 0.0798787 0.36404404 0.22936016 0.29648316
-0.17585821 0.11831145 0.13393214 0.064425945 -0.12326183 -0.17446797 -0.14357431 0.13182242
0.08487151 0.14875837 0.09260798 0.044740796 -0.0017311185 -0.13443974 -0.15145735 -0.16534784
0.07236566 -0.086791694 -0.035576764 -0.10173591 -0.03221288 -0.124421604 -0.11550866 0.05863874
-0.052537393 0.10913189 -0.056711514 -0.1296776 -0.03119029 -0.08569204 -0.05408334 -0.16829063

net.0.bias f4 [16]
00000000: 44e6 5bbe ff18 d6be fa13 e5bd 0e7f 16be
00000010: e184 8cbe acda 34be a1b7 38be daba c2bb
00000020: 11d6 f43e 714d dfbd 77d9 85bc b0cd 04be
00000030: e493 673f ef4a 1ebe dc98 293d c05d 1ebe
-0.21474558 -0.41815946 -0.11185451 -0.14696905 -0.2744513 -0.17661542 -0.18038799 -0.0059426846
0.4781957 -0.10903443 -0.016339047 -0.12969089 0.9046004 -0.15458272 0.041405544 -0.1546545

net.2.weight f4 [1, 16]
00000000: 7022 2ebc 5249 a63a 400c 8c3d 644e f6bd
00000010: 4c5a 4dbe ca14 693e 9da8 923d 60e1 19bc
00000020: 5c62 fd3d 717f 8ebe 4854 2ebe d32d 693e
00000030: 627d 95bd a895 55bc cf05 46bd 0743 aabb
-0.010628328 0.0012686646 0.06838274 -0.120266706 -0.20053977 0.22761837 0.07161067 -0.0093921125
0.12372276 -0.27831605 -0.17024338 0.22771387 -0.072993055 -0.013036169 -0.048345383 -0.0051959786
