results/full_evaluation/phase_1_1_cross_validation/fold_1/temp_model_theta_26.pt (torch, 4821 bytes, 3 tensors)

net.0.weight f4 [16, 32]
00000000: cd73 6c3d 721b 843d b087 d9bc b864 1f3e
00000010: 4c38 c1bd 7e99 5ebc edf8 d2bd 3340 5c3c
00000020: 384a 1c3e e90e ebbd 7430 fe3d 4900 4abd
00000030: 41a6 7c3d 7b8d 6fbd 5b49 9f3d 4141 57bd
00000040: 7eba 0f3e 2feb 9f3c e9bc f3bd 1d5d aa3b
00000050: 2320 92bd c968 873c de4a f4bc d563 933d
00000060: b224 08be c1e8 04be 46ec 83bd 3349 51bd
00000070: e4f3 cd3c b899 11be 41f6 473e 2832 4d3c
00000080: 4b4a 943d d11b 2ebd 17bb 9fbb 5f17 fd3d
00000090: 2c69 c7bd 3f8c 103e 2c8f 413d a23a 34be
000000a0: dda9 bc3d e038 6cbc 064e d53d b70e 2c3d
000000b0: 6b0a e33c a69b 38be 7870 c03d 6413 243d
000000c0: 4e71 103e be22 c7bd f05e 85be 61e1 83bd
000000d0: ab47 23bd f04b 783e 4535 4b3e 66b4 203e
000000e0: 35e1 313e 6b00 afbc efa4 1b3e 25e3 813d
000000f0: 30c0 e03d 154e 953d 8317 8a3e 158d ad3e
00000100: ad74 213d 4644 53bd 3708 073e 60c9 f4bd
00000110: 5820 f6bd 4b23 f6bd 11b6 133e 77df 343d
00000120: 5914 1f3e f67e 24be f0a6 42be d8b9 1cbe
00000130: 9fdf 08be 0adf 683d 78db 463d b64e 073e
00000140: d92c d9bd 5980 0abe 09e2 a13d 628b b0bd
00000150: e685 bd3d e63c 68bd 2ce5 b03d e2bf 1bbe
00000160: 1ce8 d4bd 9955 203d 2c4e b93c fa03 75bd
00000170: e197 b93d f6e8 d73d b15f 12be 987c dfbd
00000180: a5c0 253e c553 74bd 4059 80bd 4127 2fbe
00000190: 2a54 cfbd 8ee0 343d 8325 bfbc 3f66 03be
000001a0: 2ce0 873b 4a4d f7bd 8293 19be 755c c7bd
000001b0: 296e 1ebe 1886 e6bd d3f2 343e 94c2 083d
000001c0: a721 5f3d 7ad5 28be 0bc7 edbd 6b03 71bd
000001d0: 1673 e23c 6448 1fbe 22fe 9bbd bdbd d8bd
000001e0: 396c 003a 3bb7 86bd b4b3 48bc 0254 f5bd
000001f0: 6880 f8bd c936 d3bd 8dd9 77bd 07e0 0ebe
00000200: f62c d23e d221 7f3e 8aa9 413e a7b6 563e
00000210: eb80 053d 9b7f 9d3e 012a d0bd bab1 3e3d
00000220: dd1d 61be a933 f5be 1ea0 a1be 3f61 9fbe
00000230: 7a78 41be 6ce1 dbbe da62 763c 7e70 59be
00000240: 24ab d7bd 06aa c8bd 8eba 453e 7ac4 c33e
00000250: 262c ed3d b878 05bc 38a0 2d3b 3c14 35be
00000260: a6dc 18be 39df 89be 0bac da3e 1874 3ebd
00000270: 4e4f 903e 1e8b 473e 3c9a f2bb f98d 04bf
00000280: 41c4 0a3e 4b1f 603c fa1c 78bb 72d9 38be
00000290: 84a1 473d 691b 54bd 4cf5 dabd b1bf 013e
000002a0: bab5 803c 7508 febd 4944 edbd aaac 0ebd
000002b0: 7836 943d 6cc7 90bd c744 01be 9881 b1bd
000002c0: 1b87 22be 63c5 143d bc82 e23d b04a 42be
000002d0: 2c54 703c bd7b 843d 3db3 b23b e88d b7bd
000002e0: c65b 863d a5aa 873d 062e 263d 6946 68bd
000002f0: a2b1 95bd 4af4 f1bb 44c9 69bd 7c59 a0bd
00000300: 383d 353d dabb 973d b130 603c c6f7 4abd
00000310: a775 0dbe 8f88 e4bc 963c 503d ceaf 9fbd
00000320: f0be 08be 9f1f 70bd 58cf 223e 0d94 5dbd
00000330: 5575 acbd 3c51 58be 7eb4 05be fe3a 2abe
00000340: b94a 09bd 1357 323d e2b0 ad3b 785b 8c3d
00000350: 141f a2bd 8d7d 01bd 0e62 c73d b74d 7a3e
00000360: b292 063e f75f 8dbd 00fa a13d a93f c53d
00000370: 9ebb 16bd ef47 963e a821 c63d c5f8 a13e
00000380: 2d14 34be 464d f23d 8225 093e c0f1 833d
00000390: b370 fcbd bba7 32be 2505 13be 75fc 063e
000003a0: 1dd1 ad3d 1d54 183e 41a9 bd3d 2042 373d
000003b0: b3e6 e2ba 92aa 09be a317 1bbe f250 29be
000003c0: 7234 943d d8bf b1bd f1b8 11bd eb5a d0bd
000003d0: a7f1 03bd c1d0 febd ce8f ecbd 2d2f 703d
000003e0: 7331 57bd 8a80 df3d 554a 68bd 34ca 04be
000003f0: c782 ffbc 4f7f afbd 7e86 5dbd 6154 2cbe
0.057727624 0.06450547 -0.026553959 0.15565765 -0.09434566 -0.0135864 -0.10301385 0.013443041
0.15262687 -0.11477453 0.124115855 -0.04931668 0.06168199 -0.058484536 0.07777663 -0.052552465
0.14035985 0.019521324 -0.11901266 0.0051990882 -0.07135036 0.016529458 -0.029820856 0.07196776
-0.13295248 -0.12979414 -0.0644155 -0.0510952 0.02514071 -0.14218795 0.19527532 0.012524165
0.07240733 -0.042506997 -0.004874598 0.12357973 -0.09736857 0.14116 0.04725568 -0.17600492
0.09212086 -0.014417857 0.104152724 0.04200622 0.027714929 -0.18028125 0.09396452 0.040057555
0.14105722 -0.097234234 -0.26048994 -0.06439472 -0.03986327 0.24247718 0.1984454 0.15693817
0.17371066 -0.021362504 0.15199636 0.063421525 0.10974157 0.072902836 0.26971063 0.338967
0.03941791 -0.051578782 0.13186727 -0.11952472 -0.12017888 -0.1201845 0.14424922 0.044158425
0.15535106 -0.16064057 -0.19008994 -0.15305269 -0.13366555 0.05685333 0.048549145 0.1321362
-0.10604257 -0.13525523 0.07904441 -0.08620335 0.09254055 -0.056698702 0.08637461 -0.15209916
-0.10395834 0.039144132 0.022620283 -0.059818245 0.09062172 0.10542481 -0.14294316 -0.10912436
0.1618677 -0.0596502 -0.06267023 -0.17104818 -0.10123475 0.044159465 -0.023333317 -0.12831973
0.0041465964 -0.120752886 -0.14997676 -0.09734432 -0.1547171 -0.11256045 0.17670755 0.03338869
0.054475453 -0.16487685 -0.1161023 -0.05884115 0.027642768 -0.15554959 -0.07616831 -0.10583065
0.0004898939 -0.06577917 -0.012249876 -0.11978914 -0.121338665 -0.10313184 -0.060510207 -0.13952647
0.41049927 0.24915245 0.1891233 0.20968114 0.03259365 0.30761418 -0.101642616 0.046556212
-0.21984048 -0.47890976 -0.31567472 -0.3112888 -0.18893614 -0.4294542 0.0150382165 -0.21234319
-0.10530689 -0.097980544 0.19309446 0.38235837 0.11580686 -0.008146457 0.0026493203 -0.176835
-0.1492792 -0.26928118 0.42709383 -0.046497434 0.28185505 0.19486663 -0.00740364 -0.51779133
0.13551427 0.013679336 -0.0037859068 -0.18051699 0.048738018 -0.051783953 -0.10691318 0.1267078
0.015711654 -0.12403957 -0.1158529 -0.034832634 0.072369516 -0.07069287 -0.12623893 -0.08667296
-0.15871851 0.036321055 0.11060092 -0.18973804 0.014668506 0.06468914 0.005453496 -0.08962613
0.06560473 0.06624345 0.040571235 -0.056707773 -0.073092714 -0.007383858 -0.057076707 -0.07829568
0.044247836 0.07408877 0.013683484 -0.0495527 -0.13814412 -0.027897147 0.05083903 -0.07797204
-0.13354087 -0.058623906 0.15899408 -0.05409627 -0.08420817 -0.21124738 -0.13057134 -0.16624066
-0.033518527 0.04354007 0.005300627 0.06853384 -0.07916084 -0.031613875 0.09735499 0.24443708
0.13141897 -0.069030695 0.07909012 0.09631283 -0.03680002 0.29351756 0.09674388 0.3163511
-0.17585821 0.11831145 0.13393214 0.064425945 -0.12326183 -0.17446797 -0.14357431 0.13182242
0.08487151 0.14875837 0.09260798 0.044740796 -0.0017311185 -0.13443974 -0.15145735 -0.16534784
0.07236566 -0.086791694 -0.035576764 -0.10173591 -0.03221288 -0.124421604 -0.11550866 0.05863874
-0.052537393 0.10913189 -0.056711514 -0.1296776 -0.03119029 -0.08569204 -0.05408334 -0.16829063

net.0.bias f4 [16]
00000000: 4644 31be 21fb 00bf fca4 01be 0e7f 16be
00000010: 24cf bd3e 2edb 45be e5b4 3dbe daba c2bb
00000020: f998 c73e 9fed debd 77d9 85bc b650 eebd
00000030: 2a58 df3d 6b4b 1ebe 57fa 413d 12cc 58be
-0.173112 -0.5038319 -0.12660593 -0.14696905 0.37072098 -0.19321892 -0.18526037 -0.0059426846
0.38983896 -0.108851664 -0.016339047 -0.11636488 0.10905488 -0.15458457 0.047357883 -0.21171597

net.2.weight f4 [1, 16]
00000000: cff0 923b 70ed 953d 75ac 5b3d 644e f6bd
00000010: 4712 9ebd c76f 5d3e 067e 6e3c 60e1 19bc
00000020: b618 76bd 0efd efbc 4854 2ebe b8d7 493e
00000030: 62ea 13be b214 f4bc b693 adbe fca9 f3ba
0.004484273 0.07320678 0.053631265 -0.120266706 -0.0771833 0.21624671 0.0145564135 -0.0093921125
-0.06008216 -0.02929547 -0.17024338 0.19711196 -0.14444879 -0.029795025 -0.33901757 -0.0018590088
