results/full_evaluation/phase_1_1_cross_validation/fold_1/temp_model_theta_10.pt (torch, 4821 bytes, 3 tensors)

net.0.weight f4 [16, 32]
0	0x3d5c3b91	0.053767744
1	0x3d83201e	0.0640261
2	0xbdae6d54	-0.085169464
3	0x3e104f60	0.14092779
4	0xbd8103ea	-0.06299575
5	0x3c0489b2	0.00808947
6	0xbe06779a	-0.13131562
7	0x3ccc5ce8	0.024946645
8	0x3dcc35d7	0.09971207
9	0xbe0dd040	-0.13848972
10	0x3e24caf1	0.16093041
11	0x3d14980f	0.036277827
12	0x3e03d764	0.12875134
13	0x3d10e6ea	0.035376467
14	0x3debedee	0.11519991
15	0x3b8d24cf	0.0043073664
16	0x3e187c49	0.14891161
17	0x3c1bfb53	0.00952037
18	0xbe0d8091	-0.13818575
19	0x39d90f4d	0.00041400865
20	0xbde3880c	-0.11109933
21	0xbd6bac62	-0.057537444
22	0xbdebeb77	-0.11519521
23	0x3d721f40	0.059111834
24	0xbe649f27	-0.22326337
25	0xbe303f83	-0.17211728
26	0xbdf575ae	-0.11985336
27	0xbe0b2ce6	-0.13591346
28	0x3be454c3	0.006968112
29	0xbe280361	-0.16407539
30	0x3e4b4894	0.19851905
31	0xbdb1f44e	-0.086891755
32	0x3d912770	0.070876
33	0xbd10ff07	-0.035399463
34	0xbd8e74db	-0.06955882
35	0x3df9c534	0.12195817
36	0x3cd5799b	0.026058963
37	0x3e0514fb	0.12996285
38	0xbc6b4052	-0.014358597
39	0xbe06ccd8	-0.13164079
40	0xbbad30aa	-0.005285342
41	0xbd56a82e	-0.052406482
42	0x3da3d460	0.07999492
43	0x3e190fbf	0.14947413
44	0x3d9b30e5	0.07577685
45	0xbdc2d8f0	-0.09514034
46	0x3dddb403	0.1082535
47	0x3d422246	0.047395967
48	0x3dbc4864	0.09193495
49	0xbe09ac0d	-0.13444538
50	0xbe69c0ea	-0.22827497
51	0xbdd15f97	-0.102233104
52	0xbe1be801	-0.15225221
53	0x3df77b22	0.120840326
54	0x3ca039cb	0.019558808
55	0x3ce235a1	0.027613463
56	0xbc9ee653	-0.019396937
57	0xbdaf1c8d	-0.085503675
58	0x3da6f30e	0.08151828
59	0xbe0a92c8	-0.13532555
60	0x3c863041	0.016380431
61	0xbdc89b6d	-0.0979527
62	0x3ddae741	0.106886394
63	0x3c93417f	0.017975567
64	0xbccdd3ae	-0.02512535
65	0xbdf7b8c9	-0.12095792
66	0x3e05cc4b	0.13066213
67	0xbda7b4ff	-0.08188819
68	0xbdb710f7	-0.08938783
69	0xbdb87d76	-0.09008305
70	0x3e1fb8e9	0.15597881
71	0x3b8fc44f	0.0043874155
72	0x3e189249	0.14899553
73	0xbdddd83e	-0.108322605
74	0xbe06456e	-0.13112423
75	0xbdff24f0	-0.12458217
76	0xbe0b6a20	-0.13614702
77	0x3d97f058	0.07418889
78	0x3de3a862	0.11116101
79	0x3e606de7	0.21916924
80	0xbd1eef6a	-0.03880254
81	0xbde395c7	-0.11112552
82	0x3d8a74c5	0.06760553
83	0xbd9227a8	-0.0713647
84	0x3dfa1fee	0.12213121
85	0xbd4513aa	-0.048114456
86	0x3daaa3e7	0.08332043
87	0xbe37a490	-0.1793387
88	0xbe3669ff	-0.17813872
89	0xbd3267f9	-0.043556187
90	0xbc6cd631	-0.014455364
91	0xbca9ab8e	-0.020711686
92	0x3e2589ee	0.16165897
93	0x3e5c842b	0.21534793
94	0x3ca76dbf	0.020438073
95	0x3dbc0f82	0.091826454
96	0x3e25c0a5	0.1618677
97	0xbd7453c5	-0.0596502
98	0xbd805940	-0.06267023
99	0xbe2f2741	-0.17104818
100	0xbdcf542a	-0.10123475
101	0x3d34e08e	0.044159465
102	0xbcbf2583	-0.023333317
103	0xbe03663f	-0.12831973
104	0x3b87e02c	0.0041465964
105	0xbdf74d4a	-0.120752886
106	0xbe199382	-0.14997676
107	0xbdc75c75	-0.09734432
108	0xbe1e6e29	-0.1547171
109	0xbde68618	-0.11256045
110	0x3e34f2d3	0.17670755
111	0x3d08c294	0.03338869
112	0x3d5f21a7	0.054475453
113	0xbe28d57a	-0.16487685
114	0xbdedc70b	-0.1161023
115	0xbd71036b	-0.05884115
116	0x3ce27316	0.027642768
117	0xbe1f4864	-0.15554959
118	0xbd9bfe22	-0.07616831
119	0xbdd8bdbd	-0.10583065
120	0x3a006c39	0.0004898939
121	0xbd86b73b	-0.06577917
122	0xbc48b3b4	-0.012249876
123	0xbdf55402	-0.11978914
124	0xbdf88068	-0.121338665
125	0xbdd336c9	-0.10313184
126	0xbd77d98d	-0.060510207
127	0xbe0ee007	-0.13952647
128	0x3e976de3	0.29576024
129	0x3e21a1e9	0.1578442
130	0x3e312708	0.17300045
131	0x3d140290	0.036135256
132	0xbdedfa26	-0.11619978
133	0xbe6c33e1	-0.23066665
134	0xbf0c670a	-0.54844725
135	0xbeaf1fdb	-0.3420399
136	0xbe9b7351	-0.30361417
137	0xbe98e6a8	-0.29863477
138	0xbd5b271f	-0.053504106
139	0xbda2c027	-0.079468064
140	0x3d407b7b	0.04699276
141	0xbe8a6867	-0.27032778
142	0xbe0e74f4	-0.13911802
143	0xbe09aa79	-0.13443936
144	0x3dd5e708	0.10444456
145	0x3e591980	0.21201134
146	0x3ecf5944	0.40497792
147	0x3ef90170	0.4863391
148	0x3f1c7f3e	0.61131656
149	0x3e60d533	0.21956329
150	0x3e2635b8	0.1623143
151	0xbd57ac12	-0.052654333
152	0xbd321765	-0.043479342
153	0xbe5612f0	-0.20905662
154	0x3df66bce	0.12032281
155	0xbdeba88a	-0.11506756
156	0x3debb6a1	0.11509443
157	0x3d6e216d	0.058137346
158	0xbd91c669	-0.07117922
159	0xbea1e2dd	-0.31618395
160	0x3e5ab293	0.21357183
161	0x3d09c4d7	0.033634987
162	0x3de9e493	0.1142055
163	0xbc8cbf55	-0.017181078
164	0x3e4569ae	0.19278595
165	0x3db260e5	0.087098874
166	0x3c9911b9	0.018685209
167	0x3e113f7a	0.1418437
168	0x3d81dfcd	0.06341515
169	0x3cd2ab85	0.025716553
170	0x3d61eada	0.055155613
171	0x3dba3a6f	0.090931766
172	0x3df7e9f2	0.121051684
173	0x3cc02f89	0.023460167
174	0x3d3b9fd8	0.045806736
175	0x3dbeabb5	0.09310094
176	0xbc910ef7	-0.017707331
177	0x3e27f3f7	0.16401659
178	0x3e5a8f60	0.21343756
179	0xbce26591	-0.027636321
180	0x3e4d7626	0.20064601
181	0x3e1e362a	0.1545035
182	0x3da5dab8	0.08098358
183	0xbc0c878d	-0.00857724
184	0x3db80504	0.08985332
185	0x3d960c42	0.07326557
186	0x3e015ab5	0.12632258
187	0x3e0d0c39	0.13774194
188	0x3e28ecc0	0.16496563
189	0x3e95c573	0.29252204
190	0x3ea85b22	0.3288203
191	0x3ec0d7cf	0.3766465
192	0x3d6d17ff	0.057884213
193	0x3dbacf57	0.09121578
194	0xbce6834b	-0.028138777
195	0xbce891c3	-0.028389817
196	0xbb25ee67	-0.00253191
197	0xbcc9b9ef	-0.024624793
198	0x3c1aacce	0.009440614
199	0xbcdf0bff	-0.0272274
200	0xbe59bd93	-0.21263723
201	0xbd8f683b	-0.07002302
202	0x3e1df17c	0.1542415
203	0x3d65ddcd	0.05611973
204	0xbd3c8b37	-0.046031203
205	0xbe0a7aff	-0.13523482
206	0xbde37fd6	-0.11108367
207	0xbe1ab61a	-0.15108529
208	0xbd7c2401	-0.061557774
209	0x3d12c738	0.03583452
210	0x3d904c4f	0.07045805
211	0x3d7cf039	0.06175253
212	0xbe249f32	-0.16076353
213	0xbdff85e5	-0.1247671
214	0xbd48b95e	-0.049004905
215	0x3e108564	0.14113384
216	0xbd08e021	-0.03341687
217	0xbde8264f	-0.11335432
218	0x3d0940e6	0.033509158
219	0xbd681bb6	-0.056667052
220	0xbdb1fccb	-0.086907946
221	0x3e33714e	0.17523691
222	0xbbb531af	-0.0055296044
223	0x3d83ff7c	0.06445214
224	0xbe34142d	-0.17585821
225	0x3df24d46	0.11831145
226	0x3e092582	0.13393214
227	0x3d83f1c0	0.064425945
228	0xbdfc70b3	-0.12326183
229	0xbe32a7bb	-0.17446797
230	0xbe130525	-0.14357431
231	0x3e06fc75	0.13182242
232	0x3dadd11d	0.08487151
233	0x3e18541d	0.14875837
234	0x3dbda941	0.09260798
235	0x3d374220	0.044740796
236	0xbae2e6b3	-0.0017311185
237	0xbe09aa92	-0.13443974
238	0xbe1b17a3	-0.15145735
239	0xbe2950f2	-0.16534784
240	0x3d943472	0.07236566
241	0xbdb1bfd8	-0.086791694
242	0xbd11b8f1	-0.035576764
243	0xbdd05aeb	-0.10173591
244	0xbd03f1a7	-0.03221288
245	0xbdfed0c1	-0.124421604
246	0xbdec8fce	-0.11550866
247	0x3d702f2d	0.05863874
248	0xbd573173	-0.052537393
249	0x3ddf808a	0.10913189
250	0xbd684a55	-0.056711514
251	0xbe04ca34	-0.1296776
252	0xbcff82c7	-0.03119029
253	0xbdaf7f4f	-0.08569204
254	0xbd5d867e	-0.05408334
255	0xbe2c5461	-0.16829063

net.0.bias f4 [16]
0	0xbdeaa751	-0.11457694
1	0xbe90824a	-0.28224403
2	0xbeb0afca	-0.34509116
3	0xbe167f0e	-0.14696905
4	0xbe7f3d7c	-0.24925798
5	0xbeee2473	-0.46512184
6	0xbd24c430	-0.04022616
7	0xbbc2bada	-0.0059426846
8	0xbe1bef79	-0.1522807
9	0xbea0343d	-0.31289855
10	0xbc85d977	-0.016339047
11	0xbdf2a298	-0.118474185
12	0x3df3abf3	0.11898031
13	0xbe337221	-0.17524005
14	0x3d67b5aa	0.056569733
15	0xbda1909e	-0.07888912

net.2.weight f4 [1, 16]
0	0xbd03fd4f	-0.032223996
1	0xbb5438dc	-0.0032382524
2	0xbbc0edb2	-0.0058877105
3	0xbdf64e64	-0.120266706
4	0xbe33b428	-0.17549193
5	0x3e89a449	0.26883152
6	0xbb10f1e7	-0.0022116841
7	0xbc19e160	-0.0093921125
8	0xbe01f28d	-0.12690182
9	0xbe8c1791	-0.2736173
10	0xbe2e5448	-0.17024338
11	0xbe006744	-0.12539393
12	0xbe139e29	-0.14415802
13	0x3b77891f	0.003777094
14	0xbdae5a20	-0.08513284
15	0xbd07b3b7	-0.033130374
