results/full_evaluation/phase_1_1_cross_validation/fold_1/temp_model_theta_10.pt (torch, 4821 bytes, 3 tensors)

net.0.weight f4 [16, 32]
00000000: aac4 07be de07 cd3c 117a 1cbe 08ce 24be
00000010: 3345 b8bd 311b 39bd cc92 2fbe f130 db3d
00000020: 32b2 ea3d dee8 21bd 3652 833c 6c6f db3c
00000030: c194 fb3d 7707 febc ed0e 7e3d f6cf c7bc
00000040: e701 64be a01d bc3d c585 9a3d cc9d ba3c
00000050: b6fc dd3c a3e2 4e3d a648 40bd 5adf 2abe
00000060: 42c4 25be 09f6 2bbe ba5c 16bb ff42 01be
00000070: 11d2 99bd 0610 273d 8046 a53d 0ba9 7b3e
00000080: 7a15 bc3d be43 4c3e b37c 143d b88a 3e3c
00000090: ed54 eb3c 72e6 79be b070 2fbe fed5 3bbe
000000a0: 4403 34be f6b1 8a3e 1aaf d53d 3d9d 243d
000000b0: f496 22be 1915 273e 5837 a13e f890 223e
000000c0: 288d 62bd 45b6 85bd 6eff 8fbe ed2e 96be
000000d0: 599b aabe b59f d6be 48d3 b0be 6bf4 dcbd
000000e0: 9456 d4bb 388e 70be 3855 52be d32a 97bd
000000f0: 4e26 263e a09b 893e 4e6f 0d3f ac40 203f
00000100: 5131 2d3e bd13 dd3d 5e05 99bd 25cb 143e
00000110: eb72 e93d ac92 583e 1df7 d83d 6ff6 c33d
00000120: ec84 923d bedb 133c 7884 e53b ea20 523e
00000130: 9fd4 0d3e cf12 1a3e 70cb 00bd 0479 0c3e
00000140: d988 cc3d 5596 c63d 48ea 453d c039 063e
00000150: 993d 403e 020d 0a3e 18c5 d13d 9d18 c83c
00000160: 048c db3d 1acf 013e f0ef 2d3e 085a 1d3e
00000170: cf78 803d 3744 8e3e 52a7 e33e 2bd7 c23e
00000180: 7a0a e7bd 6837 83bd 8bb2 64bd 98ea eebd
00000190: a831 063e 782f 5f3e 1f08 d43d 6329 8ebd
000001a0: 377d e43d 1d1d 903d dfd9 213e f964 fe3e
000001b0: 4bfd f73e 23b6 d03e 4ced a03e b820 e43d
000001c0: 1272 b13d bc42 f6bc 8112 9bbe 1c79 a5be
000001d0: 74b6 40be 34eb e9be 6a8d 01be 5fcd dcbd
000001e0: b082 f6bd 2606 82be 91d9 93be 3e17 aabe
000001f0: 113b bfbe 8c33 3abe d4a8 083e aa89 793d
00000200: 7502 0d3e 948a 6fbd 10c7 843c e293 e13d
00000210: 5097 01bc 5afc 803d bdf3 143e 4f8d 2dbe
00000220: b806 16be 6d67 b9bd 1507 1dbe cd4b 18be
00000230: f032 463d 6a29 0dbe e6f4 a83d 0bf8 083e
00000240: 833f 113e e3f9 8fbd 26dd 74bd e0b3 6fbd
00000250: 47b5 133e 3207 acbd 84ac 813d 24ca 133d
00000260: d878 2cbd 22c4 11be 5008 52bd 687f 1dbd
00000270: c6d2 12be d2c6 03be 5635 f53d 8672 0abe
00000280: a31c bf3d edb6 b63d ae7c a83d c222 42be
00000290: a2ab 0abe 0779 8b3d b583 10be 52c0 acbc
000002a0: a0ba 883c 078d ab3c bc2c d23d d26b e6bd
000002b0: 3d5a 6ebe 3258 80bd c1a1 60be 9f0f 59be
000002c0: f539 5dbe 9973 09be 9500 18be 6142 73be
000002d0: 99f8 36bd 59df febd 4636 cdbd fa93 5f3e
000002e0: df74 f53d 6208 ba3d 7588 a83d 9a6c debd
000002f0: 1a9b 823e 71b6 0f3e 6230 413e 08c9 a03c
00000300: 9201 21be fb30 e83d cbab bdbc d26e 31be
00000310: 7d0d 123d 6847 7dbd a1a5 16be aab6 0a3e
00000320: ec08 b03d 0a54 073e 031c ac3d cf08 083d
00000330: f935 3fbe 4a0b 003e a1a5 28be 53f2 62bd
00000340: 502d 653d 8c53 59bd a0f2 21be 6fe3 47be
00000350: 35d7 1cbe 333c 1cbe 3f02 a9bd 9f31 cabd
00000360: 0b30 a23d 0f28 9f3d f0d4 bebd 624b 633d
00000370: a2ec 2bbd 643c 543e 8881 033e 7329 8b3d
00000380: a5db 29be 232f bcbc 2c73 2ebe e019 ffbc
00000390: 048f 40be 7248 f43d fc35 ebba 3daa e6bd
000003a0: b252 a73c da35 5b3d ace2 a43c cc3a 4cbe
000003b0: cf7b 8b3d 7be1 273c 27a6 a53d afb8 1bbe
000003c0: 94f7 8a3d 9589 703d 186b 073d 2d20 82bd
000003d0: e8d3 53bd fafd da3d 36c0 9a3d 269d d33c
000003e0: 633f c8bd 0b54 10bd 66c8 20bb b963 d2bd
000003f0: 317c a43d eca1 1f3e 6b69 733b cea7 da3d
-0.13258615 0.025028165 -0.1528094 -0.1609422 -0.08997574 -0.045191947 -0.17145842 0.10702694
0.11459769 -0.03952872 0.016030412 0.026786529 0.12284232 -0.031009419 0.062025953 -0.024391156
-0.2226635 0.09185338 0.07545046 0.022780322 0.027098041 0.050509106 -0.046944283 -0.16686764
-0.16188148 -0.16793074 -0.0022943453 -0.12623213 -0.0751077 0.040786766 0.080700874 0.24576204
0.09183784 0.19947717 0.036251735 0.011629753 0.02872702 -0.24404314 -0.1713283 -0.1834335
-0.1757937 0.27088898 0.104337886 0.040189017 -0.15877897 0.16316642 0.31487536 0.15875614
-0.0553104 -0.06528906 -0.28124565 -0.29332677 -0.33321646 -0.41918722 -0.34536195 -0.107888065
-0.0064800475 -0.23491752 -0.20540321 -0.07381215 0.1622555 0.26876545 0.5524796 0.6259868
0.16913344 0.107947804 -0.07471727 0.14530618 0.11398872 0.21149701 0.10594008 0.09568488
0.07154259 0.009024559 0.007004317 0.20520368 0.1385064 0.15046237 -0.031444013 0.13718039
0.09987039 0.09696642 0.04831913 0.13107967 0.18773498 0.13481525 0.10242671 0.024425799
0.10720065 0.12676659 0.1698606 0.15366375 0.062730424 0.2778642 0.44463593 0.38054785
-0.11281295 -0.06407052 -0.055834334 -0.11665839 0.1310488 0.21795452 0.103531115 -0.06941488
0.11156695 0.07036803 0.15805767 0.4968641 0.48435435 0.4076396 0.31431043 0.11139053
0.08664335 -0.030061118 -0.30287555 -0.32318962 -0.188196 -0.45687258 -0.12651601 -0.10781359
-0.120366454 -0.25395316 -0.28876927 -0.33220857 -0.37349752 -0.18183726 0.13345653 0.060922302
0.13770469 -0.058481768 0.016208202 0.110145345 -0.007909611 0.06298132 0.14546104 -0.16948436
-0.14651 -0.0905293 -0.15334733 -0.14872666 0.04838842 -0.1378533 0.08249836 0.13375871
0.14184384 -0.07030084 -0.059781216 -0.05852115 0.1442462 -0.0839981 0.06331733 0.03608145
-0.042107433 -0.14234975 -0.05127746 -0.038451582 -0.14338216 -0.12868813 0.11973064 -0.1352025
0.09331634 0.08921609 0.08226906 -0.18958572 -0.13542035 0.068101935 -0.14112742 -0.0210878
0.016690552 0.02094127 0.10262439 -0.11251034 -0.2327661 -0.06266822 -0.21936704 -0.21197365
-0.2160414 -0.13423003 -0.14843972 -0.2375579 -0.044670675 -0.12444944 -0.100201175 0.21833792
0.11985182 0.0908363 0.08229152 -0.10860558 0.25508958 0.1403444 0.18866113 0.01962711
-0.15723255 0.11337467 -0.023153206 -0.17327431 0.035657395 -0.061835676 -0.1471162 0.13546243
0.08595452 0.13215652 0.0840378 0.033211526 -0.18672933 0.12504306 -0.16469432 -0.05540688
0.055951416 -0.053058192 -0.1581521 -0.19520353 -0.1531647 -0.15257339 -0.082523815 -0.09872746
0.0791932 0.077713124 -0.09317958 0.055491813 -0.041973718 0.20726162 0.12842381 0.06795015
-0.16587694 -0.022971695 -0.17036122 -0.031140268 -0.18804556 0.1192788 -0.0017945166 -0.11262939
0.020425174 0.053518154 0.020127617 -0.19944304 0.06810724 0.01024663 0.08088332 -0.1520717
0.06785503 0.05872496 0.033061117 -0.06353793 -0.05171576 0.106929734 0.075561926 0.02583177
-0.09777715 -0.0352364 -0.002453351 -0.10272927 0.080315 0.15589112 0.0037141691 0.106765375

net.0.bias f4 [16]
00000000: f5ff 923d d606 a0be 0da1 373d 30a1 b8bd
00000010: c974 bfbd 6d6c 90bd 1717 bbbc 1efe 76bd
00000020: 32be 4e3c 4ef7 b0bd 9347 ff3c 8577 e1be
00000030: 98a9 a9be 5eb6 babe 9088 a33c d40e 12bc
0.07177726 -0.31255215 0.044831324 -0.09015119 -0.09348447 -0.070519306 -0.022838159 -0.06030094
0.012618588 -0.086409196 0.031162059 -0.440365 -0.33137202 -0.3646726 0.019962579 -0.008914668

net.2.weight f4 [1, 16]
00000000: 05f1 9cbc cddc b8be 579b 4a3e 3039 1cbe
00000010: 68ef 023e bdd3 67bd 7272 1bbd f1a3 77bc
00000020: 6797 37bd 1ed5 a83d 06f7 11bc 7ae0 6cbe
00000030: 3a06 eebd a324 5bbe bca6 e73d d801 ee3b
-0.019157896 -0.36105958 0.1978582 -0.1525619 0.12786639 -0.056598414 -0.03795094 -0.01511477
-0.044822123 0.08243774 -0.008908993 -0.23132506 -0.116222814 -0.21400695 0.11311099 0.0072634034
