results/full_evaluation/phase_1_1_cross_validation/fold_1/temp_model_theta_30.pt (torch, 4821 bytes, 3 tensors)

net.0.weight f4 [16, 32]
0	0x3d383671	0.044973794
1	0x3dd4cbd7	0.10390442
2	0xbd816b38	-0.063192785
3	0x3e23162e	0.1592643
4	0xbdb34ab3	-0.08754482
5	0x3c6080c2	0.013702573
6	0xbde5523a	-0.11197324
7	0x3c9a3d58	0.01882808
8	0x3e00b8b9	0.12570466
9	0xbdabcd8d	-0.08388815
10	0x3e16d5f2	0.14730051
11	0xbc889b7c	-0.016675703
12	0x3cea2f01	0.028586866
13	0x3bac48a0	0.005257681
14	0x3d9d6d6e	0.07686888
15	0xbd0c9cd5	-0.034329254
16	0x3e08038b	0.13282602
17	0xbd035157	-0.032059994
18	0xbe2f617c	-0.17127031
19	0x3c820efb	0.015876284
20	0xbdbe09f7	-0.092792444
21	0xbd9583c6	-0.073005244
22	0xbdcf83e0	-0.10132575
23	0x3dcd08e5	0.10011462
24	0xbe4238ab	-0.1896693
25	0xbde50b5f	-0.111838095
26	0xbde05ad4	-0.10954824
27	0xbd87a1fe	-0.066226944
28	0x3d19284d	0.03739195
29	0xbe1bcf46	-0.15215787
30	0x3e44f488	0.19233906
31	0xbd8eb4ea	-0.069681
32	0x3ad80d2e	0.001648342
33	0xbd3c4fa7	-0.0459744
34	0xbdc3ced9	-0.095609374
35	0x3de8e12b	0.113710724
36	0xbd850afb	-0.06496235
37	0x3de22380	0.11041927
38	0xbc879dd5	-0.016554752
39	0xbe436c3a	-0.19084254
40	0xbc90848d	-0.01764133
41	0x3bb3fce1	0.005492792
42	0x3d850be7	0.06496411
43	0x3dd236c9	0.10264356
44	0xbd04ca0c	-0.03241925
45	0xbdc902b5	-0.098149695
46	0x3dbe4536	0.09290545
47	0x3d0c2c96	0.034222208
48	0x3ddefe88	0.10888392
49	0xbe388b26	-0.18021831
50	0xbe9dc694	-0.30815566
51	0xbdbbbbf7	-0.09166711
52	0xbe12de2f	-0.14342569
53	0x3dcea0ed	0.10089288
54	0x3d88211a	0.066469386
55	0x3ded54c7	0.115884356
56	0x3c997a74	0.018735148
57	0xbcba3d94	-0.02273444
58	0x3d9fc3ab	0.078009926
59	0xbd2edbd9	-0.04269013
60	0x3d7817d5	0.060569603
61	0xbd6326be	-0.05545687
62	0x3e249978	0.16074169
63	0x3e05a827	0.13052426
64	0x3d1fa793	0.03897817
65	0xbd5513e5	-0.052020926
66	0x3e069421	0.13142444
67	0xbdf5b084	-0.11996558
68	0xbdf7075d	-0.12061951
69	0xbdf7090e	-0.12062274
70	0x3e1341c6	0.1438056
71	0x3d330f8d	0.043716002
72	0x3e1ea056	0.15490851
73	0xbe24f160	-0.16107702
74	0xbe431a3a	-0.19052973
75	0xbe1d2da0	-0.15349436
76	0xbe095282	-0.1341038
77	0x3d670cba	0.05640862
78	0x3d450dba	0.048108794
79	0x3e06dbf7	0.13169847
80	0xbdda138f	-0.10648262
81	0xbe0af548	-0.1357013
82	0x3da0f870	0.07859886
83	0xbdb174ee	-0.08664881
84	0x3dbc9f49	0.09210069
85	0xbd6a0a61	-0.057138804
86	0x3daffdee	0.08593355
87	0xbe1c3334	-0.15253907
88	0xbdd5cef2	-0.10439862
89	0x3d1e8967	0.038705256
90	0x3cb5bde9	0.022185283
91	0xbd76d213	-0.060258936
92	0x3db8b190	0.09018242
93	0x3dd7027b	0.1049852
94	0xbe12d362	-0.14338449
95	0xbde0632c	-0.109564155
96	0x3e25c0a5	0.1618677
97	0xbd7453c5	-0.0596502
98	0xbd805940	-0.06267023
99	0xbe2f2741	-0.17104818
100	0xbdcf542a	-0.10123475
101	0x3d34e08e	0.044159465
102	0xbcbf2583	-0.023333317
103	0xbe03663f	-0.12831973
104	0x3b87e02c	0.0041465964
105	0xbdf74d4a	-0.120752886
106	0xbe199382	-0.14997676
107	0xbdc75c75	-0.09734432
108	0xbe1e6e29	-0.1547171
109	0xbde68618	-0.11256045
110	0x3e34f2d3	0.17670755
111	0x3d08c294	0.03338869
112	0x3d5f21a7	0.054475453
113	0xbe28d57a	-0.16487685
114	0xbdedc70b	-0.1161023
115	0xbd71036b	-0.05884115
116	0x3ce27316	0.027642768
117	0xbe1f4864	-0.15554959
118	0xbd9bfe22	-0.07616831
119	0xbdd8bdbd	-0.10583065
120	0x3a006c39	0.0004898939
121	0xbd86b73b	-0.06577917
122	0xbc48b3b4	-0.012249876
123	0xbdf55402	-0.11978914
124	0xbdf88068	-0.121338665
125	0xbdd336c9	-0.10313184
126	0xbd77d98d	-0.060510207
127	0xbe0ee007	-0.13952647
128	0x3ea5a264	0.32350457
129	0x3d95f838	0.073227346
130	0x3e8fd28c	0.28090322
131	0x3d0eeec7	0.034895685
132	0xbdf3d507	-0.11905866
133	0x3e597bb5	0.21238597
134	0xbe4ab86b	-0.19796912
135	0xbd70fc8e	-0.058834605
136	0xbe978a31	-0.2959762
137	0xbee9271c	-0.4553765
138	0xbe77bd14	-0.24193221
139	0xbea01933	-0.31269225
140	0xbc96ee01	-0.018424036
141	0xbe87d047	-0.2652609
142	0x3d2258b8	0.03963539
143	0xbe1e715b	-0.15472929
144	0xbd4bf64b	-0.04979543
145	0x3dbcd1cf	0.09219705
146	0x3ed2dbda	0.41183358
147	0x3e9a4b0b	0.30135378
148	0x3e20a216	0.15686831
149	0xbe863826	-0.26214713
150	0xbe9b44b9	-0.3032587
151	0xbea88436	-0.3291337
152	0xbe97b0c9	-0.29627064
153	0xbe544291	-0.20728518
154	0x3e931b8a	0.28731948
155	0x3d8c68e6	0.06855945
156	0x3ebbd37e	0.36684793
157	0x3ed46fed	0.41491643
158	0x3e12c0b5	0.14331324
159	0xbc3a5778	-0.011373393
160	0x3e130371	0.14356782
161	0x3d916ece	0.071012124
162	0x3d92fa2d	0.071766235
163	0x3bf88529	0.0075842333
164	0x3d573703	0.052542698
165	0x3da66ee0	0.081266165
166	0x3cc89de8	0.024489358
167	0x3de20963	0.110369466
168	0x3d3b5ce4	0.045742884
169	0x3db3495f	0.08754229
170	0x3b0a8746	0.0021137758
171	0x3d84a044	0.06475881
172	0x3d03d9d0	0.032190144
173	0x3d4b8c23	0.04969419
174	0xbc4e0e3a	-0.012576634
175	0x3d0b20dd	0.033966888
176	0x3c30eb68	0.010798313
177	0x3db9ddb4	0.0907549
178	0x3d843f50	0.064573884
179	0xbd027b4a	-0.03185586
180	0x3e050eb3	0.12993889
181	0x3e046d10	0.12932229
182	0x3e432211	0.19055964
183	0x3e1dcd5e	0.15410373
184	0x3e4a0fb2	0.1973255
185	0x3e7b92a7	0.24567662
186	0x3e26d200	0.16291046
187	0x3e7ea6a5	0.24868257
188	0x3e342b23	0.1759458
189	0x3e920dd1	0.28526166
190	0x3eb4b4ec	0.35294282
191	0x3efa839a	0.4892853
192	0xbc1b9158	-0.009495102
193	0x3dbe17ff	0.09281921
194	0xbd546079	-0.051849816
195	0xbce29ddc	-0.027663164
196	0xbdb75c54	-0.08953157
197	0xbd28c614	-0.041204527
198	0x3bf6cd25	0.0075317794
199	0xbda71ac0	-0.08159399
200	0xbe6e5713	-0.23275404
201	0xbccc5503	-0.02494288
202	0x3e2071e2	0.15668443
203	0x3ceddb7f	0.029035328
204	0xbe03cb53	-0.12870531
205	0xbe0ce19d	-0.1375794
206	0xbe039e1c	-0.12853283
207	0xbe22caef	-0.15897726
208	0xbd0309c9	-0.031991754
209	0x386d736a	5.661269e-05
210	0xbbce8656	-0.006302635
211	0x3d897ab6	0.067128584
212	0xbe1e4d28	-0.1545912
213	0xbe104aaf	-0.1409099
214	0x3b8d6d83	0.0043160333
215	0x3e7eb8dd	0.24875207
216	0x3cbeb833	0.023281192
217	0xbd4a3256	-0.04936441
218	0x3ce1e5ee	0.02757546
219	0xbb322cba	-0.0027187304
220	0xbdbc735f	-0.09201693
221	0x3e4cda47	0.20005141
222	0x3d41e9fe	0.047342293
223	0x3e3b7088	0.18304646
224	0xbe34142d	-0.17585821
225	0x3df24d46	0.11831145
226	0x3e092582	0.13393214
227	0x3d83f1c0	0.064425945
228	0xbdfc70b3	-0.12326183
229	0xbe32a7bb	-0.17446797
230	0xbe130525	-0.14357431
231	0x3e06fc75	0.13182242
232	0x3dadd11d	0.08487151
233	0x3e18541d	0.14875837
234	0x3dbda941	0.09260798
235	0x3d374220	0.044740796
236	0xbae2e6b3	-0.0017311185
237	0xbe09aa92	-0.13443974
238	0xbe1b17a3	-0.15145735
239	0xbe2950f2	-0.16534784
240	0x3d943472	0.07236566
241	0xbdb1bfd8	-0.086791694
242	0xbd11b8f1	-0.035576764
243	0xbdd05aeb	-0.10173591
244	0xbd03f1a7	-0.03221288
245	0xbdfed0c1	-0.124421604
246	0xbdec8fce	-0.11550866
247	0x3d702f2d	0.05863874
248	0xbd573173	-0.052537393
249	0x3ddf808a	0.10913189
250	0xbd684a55	-0.056711514
251	0xbe04ca34	-0.1296776
252	0xbcff82c7	-0.03119029
253	0xbdaf7f4f	-0.08569204
254	0xbd5d867e	-0.05408334
255	0xbe2c5461	-0.16829063

net.0.bias f4 [16]
0	0xbde8f9f9	-0.113758035
1	0xbea6d18c	-0.32581747
2	0xbe021910	-0.12704873
3	0xbe167f0e	-0.14696905
4	0x3d998207	0.07495504
5	0xbed7642d	-0.42068616
6	0xbd66a3dc	-0.056308612
7	0xbbc2bada	-0.0059426846
8	0xbd0c2a63	-0.03422011
9	0x3de231b8	0.11044639
10	0xbc85d977	-0.016339047
11	0xbe15b051	-0.1461804
12	0x3f0ecf9d	0.5578554
13	0xbe339368	-0.175367
14	0x3d02abd8	0.031902164
15	0xbde57c42	-0.11205341

net.2.weight f4 [1, 16]
0	0x3a59bb75	0.00083058263
1	0x3c5e5503	0.013570073
2	0x3d59eee4	0.05320634
3	0xbdf64e64	-0.120266706
4	0xbe052af6	-0.1300467
5	0x3e793708	0.24337399
6	0x3c673d26	0.0141137
7	0xbc19e160	-0.0093921125
8	0xbe621835	-0.22079547
9	0xbed03dbd	-0.40672103
10	0xbe2e5448	-0.17024338
11	0x3d55dd32	0.0522129
12	0xbd90ce00	-0.070705414
13	0xbcee958d	-0.029124046
14	0xbe10814f	-0.14111827
15	0x3ad47789	0.0016209941
