results/full_evaluation/phase_1_1_cross_validation/fold_1/temp_model_theta_16.pt (torch, 4821 bytes, 3 tensors)

net.0.weight f4 [16, 32]
000000 3c cd 80 3d 85 44 95 3d 9f f7 91 bd 40 ba d3 3d
       0.06289145 0.0728846 -0.07127308 0.10338259
000010 5f ed 8a bd da ef 25 bd 73 f3 22 be 33 2a f7 3c
       -0.06783556 -0.040511943 -0.15913181 0.03017149
000020 5a 87 1a 3e 0b 5b 00 be 2e f6 fa 3d be 17 24 bd
       0.15090695 -0.1253473 0.12253986 -0.040061705
000030 fd c3 09 3d 3c e3 c3 bc c7 18 b5 3d d0 a7 ab 3c
       0.033634175 -0.023912065 0.088426165 0.020954043
000040 13 db 2b 3e d8 c6 be 3c 3a 3e d5 bd 4c 0d 8d 3d
       0.16782789 0.023288175 -0.104122594 0.06887302
000050 4c dd 0c bd aa 4f 0b bd 48 3a 9e bd ac fe a8 3d
       -0.034390733 -0.03401152 -0.0772596 0.082517
000060 b3 78 2b be 84 d8 02 be ca 6b bb bd ec 3f be bd
       -0.16745262 -0.12777907 -0.091514185 -0.09289536
000070 2f f7 89 3d 74 14 c4 bd 40 8d 82 3e c1 84 0c bd
       0.067366 -0.095742136 0.2549839 -0.03430629
000080 77 66 0c 3a 29 df 08 be 1e fb cf bd f4 4b 47 bc
       0.00053558446 -0.13366379 -0.10155319 -0.012164105
000090 96 60 3b bd 3c 42 8c 3b 91 bf ae bd b5 cd 42 be
       -0.04574641 0.0042803567 -0.08532632 -0.19023784
0000a0 1c d5 ec 3c 2a 03 83 bd d0 21 12 3d 39 82 86 3d
       0.028910212 -0.06397088 0.035676777 0.06567807
0000b0 dd 34 2b bd 46 80 40 be 96 ff 9b 3d d4 a7 ef 3d
       -0.04179846 -0.18798932 0.076171085 0.117019325
0000c0 8d 70 0d 3e c0 1b 0f be 79 da 6f be c3 b0 27 bd
       0.13812466 -0.1397543 -0.23423184 -0.040940057
0000d0 f6 10 3c bd 0c bf 23 3e 7c 0c 03 3e 1a 23 b7 3d
       -0.045914613 0.15990847 0.12797731 0.08942242
0000e0 3d 62 32 3d b7 90 ca bd 79 c3 83 3d 19 0a da bd
       0.04355072 -0.098908834 0.06433768 -0.10646457
0000f0 fc de 82 3d 31 cf 95 3c 18 4d 87 3e ec 68 53 3e
       0.06390187 0.018287273 0.26426005 0.20645493
000100 15 e5 24 3d 6e d4 4f bd 67 e4 07 3e bc 0f f3 bd
       0.040257532 -0.050739698 0.13270722 -0.118682355
000110 43 67 f4 bd a8 6b f4 bd 49 92 14 3e 9f 51 38 3d
       -0.11933758 -0.11934596 0.14508928 0.044999715
000120 d3 f0 1f 3e 93 a1 23 be a9 ca 41 be 79 dd 1b be
       0.15619211 -0.15979604 -0.18924965 -0.15221204
000130 88 02 08 be ec 4f 6c 3d f7 4d 4a 3d 62 2c 08 3e
       -0.13282216 0.057693407 0.04939076 0.1329818
000140 ea 71 d7 bd 10 a5 09 be bf 9a a3 3d c4 d2 ae bd
       -0.10519774 -0.13441873 0.079885 -0.08536294
000150 6b 3e bf 3d 28 cc 64 bd b0 9d b2 3d c6 e3 1a be
       0.09338077 -0.05585876 0.08721483 -0.15125951
000160 83 30 d3 bd 68 c8 23 3d 3d 34 c0 3c b7 95 71 bd
       -0.10311987 0.039986044 0.02346241 -0.05898067
000170 0d 50 bb 3d 9c a2 d9 3d a0 82 11 be 88 c1 dd bd
       0.09146128 0.106267184 -0.14209986 -0.10827929
000180 a5 c0 25 3e c5 53 74 bd 40 59 80 bd 41 27 2f be
       0.1618677 -0.0596502 -0.06267023 -0.17104818
000190 2a 54 cf bd 8e e0 34 3d 83 25 bf bc 3f 66 03 be
       -0.10123475 0.044159465 -0.023333317 -0.12831973
0001a0 2c e0 87 3b 4a 4d f7 bd 82 93 19 be 75 5c c7 bd
       0.0041465964 -0.120752886 -0.14997676 -0.09734432
0001b0 29 6e 1e be 18 86 e6 bd d3 f2 34 3e 94 c2 08 3d
       -0.1547171 -0.11256045 0.17670755 0.03338869
0001c0 a7 21 5f 3d 7a d5 28 be 0b c7 ed bd 6b 03 71 bd
       0.054475453 -0.16487685 -0.1161023 -0.05884115
0001d0 16 73 e2 3c 64 48 1f be 22 fe 9b bd bd bd d8 bd
       0.027642768 -0.15554959 -0.07616831 -0.10583065
0001e0 39 6c 00 3a 3b b7 86 bd b4 b3 48 bc 02 54 f5 bd
       0.0004898939 -0.06577917 -0.012249876 -0.11978914
0001f0 68 80 f8 bd c9 36 d3 bd 8d d9 77 bd 07 e0 0e be
       -0.121338665 -0.10313184 -0.060510207 -0.13952647
000200 7a c5 a4 3e 06 c9 bd 3d 2e 6c 8c 3e 67 75 ac bc
       0.32181913 0.09266858 0.27426285 -0.021052076
000210 fb e3 ce be 53 21 8a 3d 3a bf 61 be 74 42 9d be
       -0.4040831 0.06744637 -0.22045603 -0.30714762
000220 12 71 13 bf 56 4d 1c bf 62 6c d1 be 54 ad 8a be
       -0.57594407 -0.61055505 -0.40903002 -0.27085364
000230 6d 44 05 3e bc 41 b9 bc b5 a9 65 3e d0 02 35 be
       0.13014384 -0.022614352 0.2242802 -0.17676854
000240 57 3b 90 3d 5c 38 91 3e 4a f2 b6 3e 73 a5 dd 3e
       0.07042568 0.2836331 0.35731727 0.4329029
000250 6b 31 94 3e 05 91 c0 bb 90 2c 73 3d c3 a7 49 be
       0.28943953 -0.0058766627 0.05936867 -0.19692902
000260 09 07 d5 bd c4 b1 74 be 14 a9 89 3e 64 9e db 3c
       -0.104017325 -0.23895937 0.2688681 0.026808925
000270 c0 ff 5e 3e 09 f7 da 3c 60 f5 67 3d 9a 4a 07 bd
       0.21777248 0.026729124 0.056630492 -0.03303013
000280 a8 59 1e 3e bc 5d 06 3d 7e ca 88 3c 2c b6 25 be
       0.15463889 0.032804236 0.016698118 -0.16182774
000290 d3 9a 8b 3d 56 60 05 bd c8 3b b2 bd 69 4c 15 3e
       0.0681664 -0.032562576 -0.087028086 0.1457993
0002a0 97 ae 08 3d 98 ae d4 bd ec 9d c3 bd b4 50 6d bc
       0.033369627 -0.103848636 -0.095516056 -0.014484573
0002b0 04 c6 bd 3d b6 c6 51 bd eb f1 da bd 45 5a 88 bd
       0.09266284 -0.051214896 -0.106906734 -0.066578425
0002c0 28 6c 0d be ca 7a 69 3d c5 ed 05 3e 3a 9b 30 be
       -0.1381079 0.057001866 0.13078983 -0.17246714
0002d0 d6 6a 0f 3d a5 a6 ae 3d 60 17 d5 3c 4a 4e 8d bd
       0.035013996 0.08527879 0.026012123 -0.06899698
0002e0 8c 96 b0 3d 7b e1 b1 3d 72 00 76 3d 4d fc 17 bd
       0.086224645 0.08685585 0.06005902 -0.037105847
0002f0 7c 7c 58 bd c1 d9 52 3c 33 a9 18 bd 8a 86 70 bd
       -0.052853093 0.012869299 -0.037270736 -0.058722056
000300 ca 89 d2 3b 3b fa 22 3c e4 d8 01 bd 47 d2 0f be
       0.006425117 0.009947355 -0.031700984 -0.14045058
000310 04 c6 34 bd 2d b0 04 be 17 81 08 bd ea 0f 93 bd
       -0.044134155 -0.1295783 -0.033326235 -0.0718077
000320 41 7f 2b be f4 1b 93 bd e6 c9 0b 3e 63 87 82 3c
       -0.16747762 -0.07183066 0.13651237 0.015933698
000330 18 1d eb bd f8 f2 44 be 9c 04 d5 bd d4 fa c7 bc
       -0.114801586 -0.1923331 -0.1040127 -0.024411596
000340 7f cb f3 3c e4 80 47 3d 7c 95 94 3d 5e 3e 02 3e
       0.02976012 0.048706904 0.072550744 0.12719104
000350 95 e3 16 bd ad 47 61 bd 44 8a d2 3d 17 e5 70 3e
       -0.036838133 -0.054999996 0.10280278 0.23524891
000360 13 d3 60 3d 9f a2 eb bd b9 6d d7 3c 59 3c fa bc
       0.054888796 -0.11505627 0.026297437 -0.030546354
000370 87 ff 34 bd c2 fc 97 3e 1b 7f 26 3e e5 d1 87 3e
       -0.044189002 0.29685026 0.16259424 0.26527324
000380 2d 14 34 be 46 4d f2 3d 82 25 09 3e c0 f1 83 3d
       -0.17585821 0.11831145 0.13393214 0.064425945
000390 b3 70 fc bd bb a7 32 be 25 05 13 be 75 fc 06 3e
       -0.12326183 -0.17446797 -0.14357431 0.13182242
0003a0 1d d1 ad 3d 1d 54 18 3e 41 a9 bd 3d 20 42 37 3d
       0.08487151 0.14875837 0.09260798 0.044740796
0003b0 b3 e6 e2 ba 92 aa 09 be a3 17 1b be f2 50 29 be
       -0.0017311185 -0.13443974 -0.15145735 -0.16534784
0003c0 72 34 94 3d d8 bf b1 bd f1 b8 11 bd eb 5a d0 bd
       0.07236566 -0.086791694 -0.035576764 -0.10173591
0003d0 a7 f1 03 bd c1 d0 fe bd ce 8f ec bd 2d 2f 70 3d
       -0.03221288 -0.124421604 -0.11550866 0.05863874
0003e0 73 31 57 bd 8a 80 df 3d 55 4a 68 bd 34 ca 04 be
       -0.052537393 0.10913189 -0.056711514 -0.1296776
0003f0 c7 82 ff bc 4f 7f af bd 7e 86 5d bd 61 54 2c be
       -0.03119029 -0.08569204 -0.05408334 -0.16829063

net.0.bias f4 [16]
000000 19 d5 53 be b2 f1 07 bf aa c8 00 be 0e 7f 16 be
       -0.20686759 -0.5310317 -0.12576547 -0.14696905
000010 1c cd 29 bd 24 9a 31 be 8c 74 7f be da ba c2 bb
       -0.041455373 -0.17343956 -0.24946803 -0.0059426846
000020 bc 9e 1d 3f 71 6f 1b 3d 77 d9 85 bc 87 e5 1f be
       0.61570334 0.037948076 -0.016339047 -0.15614901
000030 15 29 d7 3e 85 b9 29 be 82 25 56 be c3 21 51 be
       0.4202353 -0.16574676 -0.20912746 -0.20423035

net.2.weight f4 [1, 16]
000000 86 22 39 bc b2 33 89 3c 07 1e 5f 3d 64 4e f6 bd
       -0.011299735 0.016748283 0.054471996 -0.120266706
000010 11 26 33 be 3c 0c 6d 3e 4b 84 86 3c 60 e1 19 bc
       -0.1749499 0.23149198 0.016420504 -0.0093921125
000020 1f b1 a7 bd da 23 95 be 48 54 2e be ae 7a 63 3e
       -0.0818808 -0.29128915 -0.17024338 0.22214767
000030 9a 9b 13 bc c4 1e 94 ba 15 e9 2b be d7 7f 52 bc
       -0.009009266 -0.0011300673 -0.16788132 -0.012847862
