results/full_evaluation/phase_1_1_cross_validation/fold_1/temp_model_theta_24.pt (torch, 4821 bytes, 3 tensors)

net.0.weight f4 [16, 32]
00000000: ebe8 6d3d fe54 823d db22 1cbd 0aa0 163e
00000010: b7d7 b6bd 46f7 04bd 1aa3 d6bd 80db 0e3b
00000020: d39f 173e decb eebd 3a15 ec3d 5f85 5bbd
00000030: 92cf d63c cc07 a8bc b73b 533d 52e3 64bd
00000040: 38ce 193e d108 913b 4e50 bcbd 2c91 c1bb
00000050: a59e 54bd 0e67 8e3c fca3 21bd 75b7 ce3d
00000060: 0859 22be c47f f4bd 17f8 75bd 6f63 7abd
00000070: fb6d 063d c7b8 14be 909e 503e 76e1 373c
00000080: 1ea8 ac3d 3afe 8abd c02a f4bc 8ad4 ed3d
00000090: 10e4 9ebd 0e08 9c3d da29 5e3d 7294 57be
000000a0: 0a7f 9e3d 8841 d1b7 c644 723d 7972 6d3d
000000b0: 0ef6 57bd 0d1b c7bd e0b5 253d f18d fe3c
000000c0: 622a 1d3e c396 ffbd 9499 55be d709 f4bd
000000d0: 75a1 c0ba e58c 6c3e 2f26 273e d440 453e
000000e0: e14a f03d 063f e63b 04be 223e 8ed6 cb3c
000000f0: 6030 e53d b24d a73d a147 933e 2e7e 933e
00000100: c7a4 1b3d ad0b 59bd 6295 053e d8ae f7bd
00000110: a404 f9bd f10a f9bd 8e42 123e 0513 2f3d
00000120: 2fa1 1d3e f4ef 25be 8119 44be d42c 1ebe
00000130: 9f51 0abe 570f 633d cd0f 413d e0dc 053e
00000140: 1e11 dcbd 05f4 0bbe aafd 9e3d 2470 b3bd
00000150: 6aa1 ba3d 0d09 6ebd f9fd ad3d 4732 1dbe
00000160: 9ecd d7bd 328c 1a3d d9bb ad3c 87d1 7abd
00000170: ecb1 b63d 0203 d53d c5d2 13be 6362 e2bd
00000180: a5c0 253e c553 74bd 4059 80bd 4127 2fbe
00000190: 2a54 cfbd 8ee0 343d 8325 bfbc 3f66 03be
000001a0: 2ce0 873b 4a4d f7bd 8293 19be 755c c7bd
000001b0: 296e 1ebe 1886 e6bd d3f2 343e 94c2 083d
000001c0: a721 5f3d 7ad5 28be 0bc7 edbd 6b03 71bd
000001d0: 1673 e23c 6448 1fbe 22fe 9bbd bdbd d8bd
000001e0: 396c 003a 3bb7 86bd b4b3 48bc 0254 f5bd
000001f0: 6880 f8bd c936 d3bd 8dd9 77bd 07e0 0ebe
00000200: ca47 f23e fe75 3e3e 0713 0e3e 9aee 603d
00000210: 1bcf 84bd 2915 7c3e ce59 febc 32fd 76be
00000220: 1b4e 91be 9a59 88be f586 28be afe8 96bd
00000230: f73a 533d 8f16 fabe afc5 863c 7ba3 63be
00000240: efbb 55be 3ae3 bd3d bcf6 bf3e c523 023f
00000250: 1c48 cf3e 0279 f4bd fc62 b3bd 493f 95bc
00000260: e7ec 5abe 71d1 2dbe 4365 573e 066c a6be
00000270: b4df 213e a345 693d e6f7 1dbe 754b debe
00000280: 0adf 1d3e 4173 043d bef5 843c c730 26be
00000290: 89a5 8a3d eb4a 07bd 2431 b3bd bed1 143e
000002a0: 00c4 063d 07a4 d5bd 2293 c4bd 69fb 74bc
000002b0: 9bd0 bc3d 77b1 53bd 38e7 dbbd 894f 89bd
000002c0: c6e6 0dbe 3790 673d 2473 053e dc15 31be
000002d0: 4e80 0d3d 68b1 ad3d 8642 d13c 9f43 8ebd
000002e0: 49a1 af3d 40ec b03d ed15 743d dae6 19bd
000002f0: e366 5abd 6c2f 4b3c 9893 1abd e270 72bd
00000300: ff2f 8e3d df8f 7f3d 38f6 203b 59c5 30bd
00000310: c5a5 dcbd 70a3 a1bd 13b8 8f3d fb09 d3bd
00000320: e3b0 10be 85ff fdbc 5140 063e c2d2 c4bc
00000330: 7ef4 1bbe b6c2 f9bd d33b 2dbe bf43 28be
00000340: 69f8 0dbc dbe0 f63c 1541 893d b3a9 d83c
00000350: d00f 0abd 140f 10bd 3184 933d 259a 943e
00000360: 3484 b53d 780c 05bd 3493 be3d 3de7 963d
00000370: 3a85 babc 2ed6 a13e 05d2 053e 558f 8d3e
00000380: 2d14 34be 464d f23d 8225 093e c0f1 833d
00000390: b370 fcbd bba7 32be 2505 13be 75fc 063e
000003a0: 1dd1 ad3d 1d54 183e 41a9 bd3d 2042 373d
000003b0: b3e6 e2ba 92aa 09be a317 1bbe f250 29be
000003c0: 7234 943d d8bf b1bd f1b8 11bd eb5a d0bd
000003d0: a7f1 03bd c1d0 febd ce8f ecbd 2d2f 703d
000003e0: 7331 57bd 8a80 df3d 554a 68bd 34ca 04be
000003f0: c782 ffbc 4f7f afbd 7e86 5dbd 6154 2cbe
0.058083456 0.06363867 -0.03811918 0.14709488 -0.08927863 -0.03246238 -0.10480328 0.0021798313
0.14807062 -0.11659978 0.11527486 -0.05359399 0.026222024 -0.02051153 0.05157062 -0.055880852
0.15020072 0.0044261 -0.091950044 -0.0059071984 -0.051909108 0.017383125 -0.03946303 0.100935854
-0.15854275 -0.11938432 -0.06005105 -0.061129984 0.03281973 -0.14523612 0.20372987 0.011223188
0.08430503 -0.06786771 -0.029805541 0.11612804 -0.07758343 0.07618724 0.05423913 -0.21052721
0.077390745 -2.4945257e-05 0.05914762 0.057970498 -0.05272489 -0.097219564 0.040456653 0.031073542
0.15348199 -0.124799274 -0.20859367 -0.11915939 -0.0014696555 0.23100622 0.1632316 0.19263011
0.11733032 0.007026556 0.15892798 0.024882581 0.111908674 0.08169116 0.28765586 0.28807205
0.03799894 -0.05298965 0.13045266 -0.12093896 -0.12159088 -0.1216029 0.14283201 0.042742748
0.15393518 -0.16204816 -0.19150354 -0.15446788 -0.13507698 0.05543455 0.04713421 0.13072538
-0.10745452 -0.13667305 0.07763226 -0.087616235 0.091128185 -0.0581141 0.08495707 -0.1535121
-0.10537265 0.037731357 0.021207737 -0.061234977 0.08920655 0.10400964 -0.14435871 -0.11053922
0.1618677 -0.0596502 -0.06267023 -0.17104818 -0.10123475 0.044159465 -0.023333317 -0.12831973
0.0041465964 -0.120752886 -0.14997676 -0.09734432 -0.1547171 -0.11256045 0.17670755 0.03338869
0.054475453 -0.16487685 -0.1161023 -0.05884115 0.027642768 -0.15554959 -0.07616831 -0.10583065
0.0004898939 -0.06577917 -0.012249876 -0.11978914 -0.121338665 -0.10313184 -0.060510207 -0.13952647
0.47320396 0.18599698 0.13874446 0.05491505 -0.06484815 0.24617447 -0.031048682 -0.24120024
-0.28379902 -0.2663086 -0.16457732 -0.073685996 0.051569905 -0.48845336 0.016451685 -0.22230332
-0.20872472 0.09271856 0.3749293 0.5083583 0.40484703 -0.11937143 -0.08759114 -0.018218653
-0.21379434 -0.16974427 0.21034722 -0.3250429 0.15807992 0.056951176 -0.15426597 -0.43416944
0.15417114 0.032336477 0.01623046 -0.16229545 0.067698546 -0.03303043 -0.08749607 0.14533135
0.032901764 -0.10431676 -0.09598376 -0.014952519 0.09219476 -0.051682916 -0.10737461 -0.06704623
-0.13857564 0.05653402 0.13032204 -0.17293495 0.03454619 0.08481103 0.025544416 -0.069464915
0.085756846 0.08638811 0.059591223 -0.037573673 -0.053320777 0.012401443 -0.037738413 -0.059189685
0.06942748 0.062393066 0.002456082 -0.043156955 -0.107738055 -0.07892501 0.07017531 -0.10304638
-0.14129977 -0.03100563 0.13110472 -0.024026278 -0.15229985 -0.12195341 -0.16917352 -0.16432093
-0.008665183 0.030136516 0.067018665 0.026448106 -0.033706486 -0.03517063 0.07202948 0.29023853
0.08863106 -0.032482594 0.093054205 0.07368324 -0.022768606 0.3160872 0.13068397 0.27648416
-0.17585821 0.11831145 0.13393214 0.064425945 -0.12326183 -0.17446797 -0.14357431 0.13182242
0.08487151 0.14875837 0.09260798 0.044740796 -0.0017311185 -0.13443974 -0.15145735 -0.16534784
0.07236566 -0.086791694 -0.035576764 -0.10173591 -0.03221288 -0.124421604 -0.11550866 0.05863874
-0.052537393 0.10913189 -0.056711514 -0.1296776 -0.03119029 -0.08569204 -0.05408334 -0.16829063

net.0.bias f4 [16]
00000000: 47e5 36be a2ef 04bf 3618 03be 0e7f 16be
00000010: 9812 bb3e c414 32be bd42 4fbe daba c2bb
00000020: 89ed 123f 3128 933d 77d9 85bc ad2f f0bd
00000030: 2c7a d43d 9e6e 22be c850 bb3d ba7b 5cbe
-0.178609 -0.5192815 -0.12802204 -0.14696905 0.36537623 -0.17390734 -0.20240302 -0.0059426846
0.573937 0.071854 -0.016339047 -0.117278434 0.10374865 -0.1586251 0.09146267 -0.21531573

net.2.weight f4 [1, 16]
00000000: 7798 2bbb b8c0 723d 7bdf 553d 644e f6bd
00000010: 920c 78bd 2391 6c3e 18f6 083d 60e1 19bc
00000020: 18d2 60bd 503d abbe 4854 2ebe ff97 4e3e
00000030: 7761 04be 4987 40bc d36b 42be 88bd 623b
-0.0026183405 0.059265822 0.05221508 -0.120266706 -0.060558863 0.2310224 0.03343782 -0.0093921125
-0.05488786 -0.33445215 -0.17024338 0.2017517 -0.12927805 -0.0117510045 -0.18986444 0.0034597833
