results/full_evaluation/phase_1_1_cross_validation/fold_1/temp_model_theta_6.pt (torch, 4811 bytes, 3 tensors)

net.0.weight f4 [16, 32]
00000000: d5a9 713d a579 5b3d 59e3 20be ebf6 723d
00000010: 55fe 02be 7e97 38bd d2b1 1fbe df16 693d
00000020: 2653 1d3e 0e90 f3bd ac8e 123e eca2 a038
00000030: 7100 df3d 19cc a03c 86f5 a43d 38d0 b6bc
00000040: fd0a f33d 8d79 efbb 0d6c 0dbe 24f0 8fbb
00000050: 8b01 ddbd dd17 1dbd 35d0 c2bd 79e3 9d3d
00000060: 26b5 48be 9e4f 14be f984 d2bd 49a4 e3bd
00000070: fcd5 033d 41e3 0cbe 9f4d 593e ebd8 a9bd
00000080: 9010 e03d 9ef9 07bd 57f1 2cbe f5fc 3a3c
00000090: 88b7 63bd 1911 7f3d c26f 75bd 9fb6 e0bd
000000a0: fe09 863d 8f0e 25bc ac06 9d3d 7e8a 003e
000000b0: 96b4 b33d 14d0 98bd 92a3 b33d 32af 1c3d
000000c0: 2806 803d 35cc 27be da68 8dbe 08e5 1dbe
000000d0: 5778 2dbe 1121 163e f407 6d3d 3086 653d
000000e0: 2349 e03b a5e1 8cbd 157c b53d dffa acbd
000000f0: 316e b53d 3421 243b 7c31 5a3e 06a5 023e
00000100: 0a19 4c3d 6aa0 28bd b3ab 113e 5cd5 debd
00000110: 7624 dfbd 2481 dfbd 70e1 1e3e fa0f 613d
00000120: e591 293e 07f6 19be 584c 37be 6b62 11be
00000130: 106d fbbd 20e8 893d 722b 713d b84f 123e
00000140: 56c8 c2bd 9ec4 ffbd 31fb b63d 085b 9bbd
00000150: 1fe9 d23d 7dd5 3cbd 511d c63d 39fc 11be
00000160: 469d c2bd 47ad 453d 38ca 033d 743b 4abd
00000170: 1501 d13d 0bc6 f03d 0862 07be 697e cbbd
00000180: a5c0 253e c553 74bd 4059 80bd 4127 2fbe
00000190: 2a54 cfbd 8ee0 343d 8325 bfbc 3f66 03be
000001a0: 2ce0 873b 4a4d f7bd 8293 19be 755c c7bd
000001b0: 296e 1ebe 1886 e6bd d3f2 343e 94c2 083d
000001c0: a721 5f3d 7ad5 28be 0bc7 edbd 6b03 71bd
000001d0: 1673 e23c 6448 1fbe 22fe 9bbd bdbd d8bd
000001e0: 396c 003a 3bb7 86bd b4b3 48bc 0254 f5bd
000001f0: 6880 f8bd c936 d3bd 8dd9 77bd 07e0 0ebe
00000200: f9c3 043e f991 5bbd 87f6 083e fd63 093d
00000210: 5490 31be 5b4b c73d a59e 97bd c8b0 b8bd
00000220: 1f62 2bbe 0c74 49be e170 f43c 6fb0 6fbd
00000230: b3d3 4c3d 0017 2abe e035 e03d 0711 1bbe
00000240: 25e3 58bd 3d9d 563c de74 883d a6c5 ef3d
00000250: b2a1 0e3e 2f37 21be 7813 da3c 0840 c5bd
00000260: 0be1 29bd 74a5 1dbe 5d6a 0f3e f7dd 18be
00000270: 4e3b 9c3d 4a4d 383d 341f 203d a028 eabd
00000280: 00f9 1b3e 40b6 f93c 718a 6b3c bb16 28be
00000290: 01da 863d 5ce2 0ebd e9fc b6bd d3eb 123e
000002a0: 5458 fe3c c96f d9bd 925e c8bd 00ac 89bc
000002b0: f504 b93d fa48 5bbd 22b3 dfbd 4d1b 8dbd
000002c0: 96cc 0fbe c4f8 5f3d 3b8d 033e cbfb 32be
000002d0: 7fe8 053d 80e5 a93d c112 c23c 940f 92bd
000002e0: 4ed5 ab3d 4120 ad3d f57d 6c3d da7e 21bd
000002f0: d7fe 61bd 23d1 2c3c 5d2b 22bd b208 7abd
00000300: a617 e93d e3a3 e73d 912e e4bd f5aa f9bd
00000310: 2704 84bd 7c9e 9abd fe78 bbbc ef00 113c
00000320: 5e9f febd d942 35bc 1610 2a3e d14c 4a3d
00000330: 4ed9 19bc 19d4 bebd 67c6 f7bd f369 15be
00000340: 44ed a1bd 86bb 103c ecdf 573c 73d9 a5b9
00000350: 46ec 3ebe 7a60 c4bd cc26 bfbb 949a 2e3e
00000360: 4bf2 2dbc 54ab d3bd 2afe f33c 3d4e 7abc
00000370: ffae febc 9bc6 843e a528 b03d 9d79 263e
00000380: 2d14 34be 464d f23d 8225 093e c0f1 833d
00000390: b370 fcbd bba7 32be 2505 13be 75fc 063e
000003a0: 1dd1 ad3d 1d54 183e 41a9 bd3d 2042 373d
000003b0: b3e6 e2ba 92aa 09be a317 1bbe f250 29be
000003c0: 7234 943d d8bf b1bd f1b8 11bd eb5a d0bd
000003d0: a7f1 03bd c1d0 febd ce8f ecbd 2d2f 703d
000003e0: 7331 57bd 8a80 df3d 554a 68bd 34ca 04be
000003f0: c782 ffbc 4f7f afbd 7e86 5dbd 6154 2cbe
0.058999855 0.053582806 -0.15711726 0.05931751 -0.12792332 -0.04506635 -0.15595177 0.056906577
0.1536375 -0.118927106 0.14312238 7.659741e-05 0.10888756 0.019628571 0.080546424 -0.022316083
0.1186733 -0.007308191 -0.1381075 -0.0043926407 -0.1079131 -0.038352836 -0.095123686 0.077094026
-0.19600353 -0.14483497 -0.10279269 -0.11115319 0.032186493 -0.13758565 0.21221016 -0.08293327
0.10940659 -0.033197038 -0.16888939 0.011412849 -0.05559495 0.062272165 -0.059921034 -0.10972332
0.065448746 -0.010074272 0.07667288 0.1255283 0.087746784 -0.07461563 0.08771433 0.038253017
0.06251174 -0.16386493 -0.27619058 -0.154194 -0.16940437 0.14661051 0.057868913 0.056036174
0.006844656 -0.06878976 0.088615574 -0.08446287 0.08858908 0.0025044205 0.2130794 0.12758264
0.049828567 -0.041168608 0.14225654 -0.10880539 -0.10895626 -0.109133035 0.15515685 0.054946877
0.1655956 -0.15035258 -0.17900217 -0.141977 -0.122766614 0.067337275 0.058879323 0.14288223
-0.09510867 -0.124886736 0.0893463 -0.07585722 0.102983706 -0.046102036 0.096735604 -0.14256372
-0.09502654 0.048260953 0.032175273 -0.049373105 0.102052845 0.11756524 -0.1322099 -0.0993622
0.1618677 -0.0596502 -0.06267023 -0.17104818 -0.10123475 0.044159465 -0.023333317 -0.12831973
0.0041465964 -0.120752886 -0.14997676 -0.09734432 -0.1547171 -0.11256045 0.17670755 0.03338869
0.054475453 -0.16487685 -0.1161023 -0.05884115 0.027642768 -0.15554959 -0.07616831 -0.10583065
0.0004898939 -0.06577917 -0.012249876 -0.11978914 -0.121338665 -0.10313184 -0.060510207 -0.13952647
0.12965383 -0.053606007 0.13375293 0.033542622 -0.17340213 0.0973117 -0.07403306 -0.09018093
-0.16736649 -0.19673175 0.029838981 -0.05851787 0.05000658 -0.16610336 0.10947776 -0.15143214
-0.052950997 0.013099012 0.06662916 0.1170762 0.1392887 -0.15743707 0.026620612 -0.096313536
-0.041474383 -0.15395147 0.14005418 -0.14928423 0.07628499 0.044995584 0.039092258 -0.1143353
0.15231705 0.030482411 0.014376269 -0.16414921 0.0658455 -0.034883842 -0.089349575 0.14347772
0.031047978 -0.106170245 -0.09783663 -0.016805649 0.090341486 -0.053536393 -0.10922839 -0.06889973
-0.14042887 0.0546806 0.12846844 -0.17478864 0.03269243 0.08295727 0.023690583 -0.071318775
0.08390294 0.084534176 0.05773731 -0.039427616 -0.055174675 0.010547909 -0.039592136 -0.06104345
0.11381464 0.11310556 -0.11141694 -0.121908106 -0.064461045 -0.0754976 -0.022884842 0.00885032
-0.12432741 -0.011063301 0.16607699 0.049389664 -0.009390188 -0.09317798 -0.12098389 -0.14591198
-0.07906583 0.008833772 0.013175946 -0.00031633265 -0.18644819 -0.09588714 -0.0058334824 0.17051154
-0.010616849 -0.103354126 0.02978428 -0.0152774425 -0.031089304 0.25932774 0.08601502 0.1625733
-0.17585821 0.11831145 0.13393214 0.064425945 -0.12326183 -0.17446797 -0.14357431 0.13182242
0.08487151 0.14875837 0.09260798 0.044740796 -0.0017311185 -0.13443974 -0.15145735 -0.16534784
0.07236566 -0.086791694 -0.035576764 -0.10173591 -0.03221288 -0.124421604 -0.11550866 0.05863874
-0.052537393 0.10913189 -0.056711514 -0.1296776 -0.03119029 -0.08569204 -0.05408334 -0.16829063

net.0.bias f4 [16]
00000000: 880b 65be 56eb ebbe bc9f edbd 0e7f 16be
00000010: c98c 023e c0fa 33be 88ea 4dbe daba c2bb
00000020: a053 e5bc a969 80be 77d9 85bc 84a7 fcbd
00000030: b25f 0c3f ae29 1dbe 3d5b 033f 639d ddbe
-0.2236768 -0.46077985 -0.116027325 -0.14696905 0.12749018 -0.17576122 -0.20108998 -0.0059426846
-0.027993977 -0.25080612 -0.016339047 -0.123366386 0.5483352 -0.15347931 0.51311094 -0.4328414

net.2.weight f4 [1, 16]
00000000: 05ea 26bc 8387 a53b 6d51 883d 644e f6bd
00000010: 89af 8fbc b0aa 6a3e 6df4 933b 60e1 19bc
00000020: 987a 6abe bf7d a8be 4854 2ebe be50 5d3e
00000030: a1a2 0abe 70de 93bc 50b2 b1bd e5b3 40be
-0.010187631 0.0050515546 0.06656156 -0.120266706 -0.017539756 0.22916675 0.004515222 -0.0093921125
-0.22898328 -0.32908437 -0.17024338 0.21612832 -0.135386 -0.018050402 -0.086765885 -0.18818624
