results/models/window_nn_theta_15.0.pt (torch, 2925 bytes, 3 tensors)

net.0.weight f4 [16, 16]
0	0x3e2913a9	0.16511406
1	0xbc8c4666	-0.017123412
2	0xbe521c09	-0.20518507
3	0xbe663909	-0.22482695
4	0xbe4474a5	-0.19185121
5	0x3e193e37	0.1496514
6	0xbd89e4e8	-0.067331135
7	0xbe366faf	-0.17816041
8	0x3e67f79f	0.22653054
9	0x3d3976e7	0.04527941
10	0x3ca144dc	0.019686155
11	0x3d8594a3	0.06522491
12	0xbd1e1801	-0.03859711
13	0xbe4c0dbf	-0.19927119
14	0x3db752a3	0.089513086
15	0xbd1d3c88	-0.038387805
16	0x3db15d55	0.0866038
17	0xbcb0b184	-0.021569021
18	0xbcf6af52	-0.030112896
19	0x3cbc2858	0.022968456
20	0xbe320aaf	-0.17386888
21	0xbe334244	-0.17505747
22	0xbe5450bc	-0.20733923
23	0x3e1fb3f0	0.15595984
24	0xbccad308	-0.02475883
25	0x3e462662	0.1935058
26	0x3e445ad8	0.19175279
27	0xbd6b0b72	-0.057383962
28	0x3d4dbf0f	0.050231036
29	0x3d326a87	0.043558624
30	0xbd91ec71	-0.07125176
31	0xbe063d70	-0.13109374
32	0x3d1f059d	0.038823713
33	0x3d994b71	0.074850924
34	0x3e5344b1	0.20631672
35	0x3e3225a1	0.17397167
36	0xbe80b2ab	-0.25136313
37	0xbe240216	-0.1601642
38	0xbe66d744	-0.22543055
39	0xbe579a9f	-0.21055077
40	0xbe805dfb	-0.250717
41	0xbd81b9c5	-0.06334261
42	0x3e65e6b0	0.22451282
43	0xbdcdc945	-0.10048155
44	0xbde78789	-0.11305148
45	0x3dc72ea2	0.097256914
46	0x3e16e7e1	0.14736892
47	0xbe829086	-0.25500888
48	0x3dc83365	0.09775428
49	0x3e3fa10c	0.18713778
50	0x3d1c75eb	0.038198393
51	0x3e1d13af	0.1533954
52	0xbe1ffa2a	-0.15622774
53	0xbe7d47db	-0.24734442
54	0x3dc79780	0.09745693
55	0x3c8c3201	0.017113687
56	0x3e6b8c85	0.23002823
57	0xbe4449ab	-0.19168727
58	0xbe7ddfaf	-0.2479236
59	0x3d95dc5d	0.073174216
60	0x3dd412ec	0.103551716
61	0xbe58ff3e	-0.21191117
62	0xbd5ebeba	-0.05438111
63	0xbe334e45	-0.17510326
64	0x3da9c1a8	0.0828889
65	0x3e5d801b	0.216309
66	0x3de5b6d5	0.11216513
67	0x3dc710a8	0.09719974
68	0xbe4e5e78	-0.20153224
69	0xbe496e67	-0.19671021
70	0x3e3fc326	0.18726787
71	0x3e54e5d1	0.20790793
72	0x3d0000fe	0.031250946
73	0xbe203872	-0.15646532
74	0x3df08f69	0.11746103
75	0x3dd3b1ee	0.10336672
76	0x3d88c9f6	0.06679146
77	0x3d54f28c	0.051989123
78	0x3d8e6112	0.069521084
79	0x3e33f3d1	0.17573477
80	0xbda64673	-0.08118906
81	0x3ca45efd	0.020064825
82	0xbe12ec17	-0.14347874
83	0x3d970bde	0.0737531
84	0x3e56db0f	0.20982002
85	0x3dee8c9c	0.11647913
86	0x3e7b1015	0.24517854
87	0x3e042037	0.12902914
88	0xbe14a9a9	-0.14517845
89	0xbd9f4a48	-0.0777784
90	0x3d9eb41a	0.077491954
91	0x3e3dc3dd	0.18531747
92	0x3cb17092	0.021660123
93	0x3e1f540a	0.15559402
94	0x3dd3f75d	0.10349915
95	0x3e8a6a09	0.27034023
96	0xbc6c55a0	-0.0144247115
97	0x3db527c8	0.08845478
98	0xbe7bca44	-0.24588877
99	0xbce95a40	-0.028485417
100	0x3dca942c	0.09891543
101	0xbe655404	-0.2239533
102	0xbda085fc	-0.078380555
103	0xbd83dd54	-0.06438699
104	0xbdca6e4c	-0.09884319
105	0xbdeca8cc	-0.11555633
106	0x3e550d6e	0.20805904
107	0x3be67840	0.007033378
108	0xbe32c0c8	-0.17456353
109	0xbde86b58	-0.11348599
110	0xbd84b6f4	-0.06480208
111	0xbd80ca68	-0.06288606
112	0xbdbbf7da	-0.09178133
113	0x3e508632	0.20363691
114	0xbdce98e5	-0.10087756
115	0xbd959ce6	-0.073053166
116	0xbdc8847e	-0.09790896
117	0x3e663a77	0.2248324
118	0xbde20764	-0.11036566
119	0x3e878157	0.26465866
120	0x3e19a133	0.15002899
121	0x3bbc826a	0.0057528513
122	0x3e96fca1	0.29489616
123	0xbc582332	-0.013191985
124	0x3cb488a6	0.022037815
125	0xbd4ebd52	-0.05047352
126	0x3e93d904	0.28876507
127	0x3e07fd02	0.13280109
128	0x3dd551c6	0.10415988
129	0x3d1da961	0.03849161
130	0x3d86e001	0.06585694
131	0x3dd42cb3	0.10360088
132	0xbe7a351d	-0.24434324
133	0xbd6948b7	-0.056954112
134	0x3e2f014d	0.1709034
135	0xbe2f9c9a	-0.17149583
136	0x3d94519f	0.072421305
137	0xbe39f7b4	-0.18160897
138	0xbe0bf22c	-0.136666
139	0x3c77a4e6	0.015114998
140	0xbd050ee9	-0.032484923
141	0xbe2b1748	-0.167081
142	0xbca33041	-0.01992047
143	0x3de28191	0.11059869
144	0xbd994ee5	-0.07485751
145	0x3dccf86c	0.1000832
146	0xbe680051	-0.2265637
147	0x3e072ca2	0.1320062
148	0xbe0a9693	-0.13534002
149	0x3e82cb9b	0.25545964
150	0x3e6ba55b	0.23012297
151	0x3e097919	0.13425101
152	0xbd605eae	-0.054777794
153	0xbe50490b	-0.20340364
154	0x3e4bbcd0	0.19896245
155	0x3e4c52d7	0.19953476
156	0xbe08d7e3	-0.13363604
157	0xbe167b85	-0.14695556
158	0xbd8506d8	-0.06495446
159	0x3e2ea12c	0.1705367
160	0xbe40289a	-0.18765488
161	0xbd31f208	-0.04344371
162	0xbcfb8fa0	-0.030708134
163	0x3e50fe74	0.20409566
164	0xbd153a40	-0.036432505
165	0xbe221d46	-0.1583148
166	0x3dfd82d4	0.12378469
167	0x3bc6a600	0.006062269
168	0xbe016374	-0.12635595
169	0x3d8228c4	0.06355432
170	0xbe5500ee	-0.20801136
171	0x3e1fe29c	0.15613788
172	0x3d0b8b90	0.034068644
173	0xbd9dd6e4	-0.07707003
174	0xbd8f6fc4	-0.070037395
175	0xbe492a7c	-0.19645113
176	0x3e454d1a	0.19267693
177	0xbc4528bb	-0.012033637
178	0xbe80db1b	-0.25167164
179	0x3e1aeaf6	0.15128693
180	0x3c451410	0.012028709
181	0xbe91c7c8	-0.28472733
182	0x3d78d9cd	0.060754586
183	0x3d8d282f	0.0689243
184	0x3dc4b600	0.09605026
185	0x3e391d2c	0.18077534
186	0xbcc605c7	-0.024172677
187	0x3d70264c	0.058630273
188	0xbe312bec	-0.17301911
189	0xbe643fd3	-0.22289972
190	0xbdf50777	-0.119643144
191	0x3d62aec3	0.055342447
192	0xbe3ee028	-0.18640196
193	0x3e4c053e	0.19923875
194	0xbe31f7a6	-0.17379627
195	0x3e2f45fc	0.1711654
196	0x3da29d7c	0.07940194
197	0xbdd77870	-0.105210185
198	0x3e400fc6	0.18756017
199	0xbda5223c	-0.0806317
200	0x3e2db3d4	0.1696313
201	0x3d342e60	0.04398954
202	0x3e1412d2	0.14460304
203	0xbdada8dc	-0.08479473
204	0xbdab8bcc	-0.083762735
205	0xbe1b5516	-0.15169176
206	0xbdee55d0	-0.11637461
207	0xbe747166	-0.23871383
208	0x3c515dc0	0.012778699
209	0xbe22e4fe	-0.15907666
210	0xbe0fa2f8	-0.14027011
211	0x3db48094	0.08813587
212	0xbd2bcf10	-0.041945517
213	0xbe64fa48	-0.223611
214	0x3dda98ac	0.10673651
215	0x3e55509e	0.20831534
216	0xbe35cd0e	-0.17754003
217	0x3e63a050	0.22229123
218	0x3dbb42d0	0.09143603
219	0xbe2c86d6	-0.16848311
220	0xbe0ab0d0	-0.13544011
221	0xbd9f50c4	-0.07779077
222	0xbe6fddf4	-0.23424512
223	0x3e370800	0.17874146
224	0xbd3e7bed	-0.046504904
225	0xbd81b094	-0.06332508
226	0x3e06bb96	0.13157496
227	0xbe067210	-0.13129449
228	0x3dd2996b	0.102831684
229	0xbc488555	-0.01223882
230	0xbcdb113e	-0.02674162
231	0x3ddfbd07	0.10924726
232	0x3dbbfd13	0.091791295
233	0x3e924552	0.28568512
234	0x3e62c797	0.2214645
235	0x3dda2321	0.106512316
236	0x3dee8eed	0.11648355
237	0x3e8519a8	0.25996137
238	0x3cfc4a97	0.030797286
239	0xbd1f0688	-0.038824588
240	0xbe2f48fd	-0.17117687
241	0xbe386b08	-0.18009579
242	0x3e46a250	0.19397855
243	0x3dc83a6d	0.09776769
244	0x3e3b271f	0.18276642
245	0xbb3e27e9	-0.0029015488
246	0x3e5831fc	0.21112818
247	0xbe346056	-0.17614874
248	0x3e5796dd	0.21053644
249	0xbe7d13ff	-0.24714659
250	0xbdc70dfd	-0.09719465
251	0xbe3e05d0	-0.18556905
252	0x3e02180d	0.12704487
253	0x3dc442e1	0.09583069
254	0xbdf79ab6	-0.12090056
255	0x3d9373c4	0.07199815

net.0.bias f4 [16]
0	0x3e0d312b	0.13788287
1	0x3e0589cf	0.13040851
2	0x3e2eff07	0.17089473
3	0xbe244f17	-0.16045795
4	0x3d8a86cc	0.06763992
5	0x3e82b425	0.25528064
6	0xbde80644	-0.1132932
7	0x3e871007	0.26379415
8	0x3c2fe4c6	0.010735696
9	0xbe9d2d80	-0.30698776
10	0xbd939330	-0.07205808
11	0x3ddadaa8	0.106862366
12	0xbe6f0296	-0.2334083
13	0xbe2f77d6	-0.17135558
14	0x3dd395a0	0.10331273
15	0xbd23ce9e	-0.039991967

net.2.weight f4 [1, 16]
0	0xbdb6fca2	-0.08934905
1	0xbdd13462	-0.10215069
2	0xbd12ca02	-0.03583718
3	0xbe4d358d	-0.20039959
4	0x3db91951	0.09038032
5	0x3ea8a056	0.32934827
6	0x3e5ca9ce	0.2154915
7	0x3e0f310f	0.13983558
8	0xbd1c158b	-0.038106482
9	0xbe49198f	-0.19638656
10	0xbde40de0	-0.11135459
11	0xbda86ab3	-0.08223476
12	0xbd89665c	-0.067089766
13	0xbd08f9e8	-0.033441454
14	0x3e9eb05d	0.3099393
15	0xbe3ce0c2	-0.18445113
