results/models/window_nn_theta_20.pt (torch, 3937 bytes, 3 tensors)

net.0.weight f4 [16, 32]
-0.14435667 0.14512007 0.060459062 -0.05462295 0.01571776 -0.15956305 -0.033765927 -0.05514376
0.062876925 -0.08754459 -0.08959499 0.086658016 -0.046794906 -0.057332315 -0.08325463 -0.097614795
-0.0039364547 -0.0087668 -0.016863078 -0.013425589 0.12878491 -0.080054864 -0.09119735 -0.09124866
-0.09394711 -0.09167253 0.056051284 0.036278293 -0.061526433 0.0496473 -0.14658402 0.0021832436
0.12786649 -0.13959716 -0.1854931 -0.099153884 0.13392253 0.18225938 -0.06123299 -0.16082074
0.13872944 0.05389114 0.1468309 -0.088116646 0.07394979 -0.10663643 0.025818128 -0.035691287
0.07253021 -0.058792874 0.12678993 0.063292675 -0.03966723 0.1385626 -0.10649552 -0.024913298
-0.014475184 0.16322517 -0.061696414 0.20755777 0.15693112 0.095352374 -0.0113386 -0.010879756
-0.115832776 0.09645195 0.13533594 0.088860616 -0.05215065 -0.099055335 -0.16927223 -0.073235415
0.14948837 0.1310433 0.048264816 0.17314033 -0.12455854 0.15794735 -0.16641192 -0.07040095
-0.07510071 -0.16671221 -0.051022485 -0.068659365 0.052418143 0.0044989586 0.13927169 0.09115492
0.1395968 -0.14682446 -0.12898095 0.0038413703 -0.071013495 -0.009680882 -0.1724621 -0.14585507
0.1348332 0.012273728 0.01171146 0.0763267 0.032577496 0.0048464714 0.0015247335 0.09101571
0.113689385 -0.1015566 0.0006245018 0.03806975 0.15171443 0.15980113 -0.023149438 -0.16005254
0.0902851 -0.12179987 0.090641975 -0.08300378 0.10174448 0.19268087 -0.036599375 -0.072179094
0.037378494 -0.06620292 0.15517285 -0.12005602 -0.07756818 0.18952827 0.1493651 0.21578293
0.14082223 -0.14353237 -0.013997682 -0.07110898 0.12526566 -0.10982798 0.0896119 0.13481088
0.091968335 -0.03483741 -0.16608928 -0.07585133 0.032690294 -0.10288269 0.06403797 0.103967756
-0.066818856 -0.06837374 -0.1388855 -0.13625379 -0.00904808 -0.15512003 0.09448616 0.061905243
-0.11762247 0.106046736 0.04137158 -0.011370206 0.14419062 -0.17355624 -0.0029202914 -0.061674614
-0.17317648 -0.12445888 0.089022174 0.13806687 -0.085546635 0.04406114 0.08153765 0.06480107
-0.015664294 0.11367293 -0.093807355 -0.16011997 0.03818898 0.007162705 -0.046861947 -0.17060876
0.0322773 -0.17415857 0.1504095 -0.1292416 -0.09719384 -0.0159937 0.116962865 0.045978546
0.0392517 -0.133881 0.08998461 0.13961448 -0.15001018 -0.12178585 0.008421272 -0.05343342
0.12959382 -0.034999076 -0.08140718 -0.059791163 -0.10138465 0.008054248 -0.11368481 -0.04067481
0.08086996 0.0020416128 -0.12889336 -0.074165426 0.01738625 0.087994 0.014308957 -0.08952333
0.13205247 0.13531913 -0.12519728 0.19020918 0.014457559 0.042732254 0.069016844 0.07936929
0.084120944 0.118111804 0.021863902 0.033884108 0.010213057 0.101072565 0.0833991 0.19363818
0.038026273 0.010591 -0.07234386 0.1594968 -0.16857648 -0.15951928 -0.091310725 0.0532175
0.05140759 0.061975926 -0.045202628 -0.12264469 0.17624994 -0.14616375 0.09614019 -0.07046034
0.14440052 0.025507942 -0.005304605 -0.16775057 -0.018715099 -0.035651118 -0.14167711 -0.15762308
-0.104494445 -0.1500126 -0.16755745 -0.079153 0.15496342 -0.1551376 -0.17016305 0.08564003
00000000: 3cd2 13be 5b9a 143e eca3 773d 50bc 5fbd
00000010: 88c2 803c 7f64 23be 244e 0abd 6cde 61bd
00000020: 9ec5 803d 944a b3bd 947d b7bd c279 b13d
00000030: 04ac 3fbd 4ad5 6abd 6781 aabd 44ea c7bd
00000040: 60fd 80bb a0a2 0fbc 7024 8abc 00f7 5bbc
00000050: 31e0 033e cef3 a3bd adc5 babd 94e0 babd
00000060: 5867 c0bd cfbe bbbd 0896 653d 8c98 143d
00000070: 2403 7cbd f85a 4b3d 1f1a 16be c014 0f3b
00000080: 6fef 023e 8ff2 0ebe e7f1 3dbe 3111 cbbd
00000090: fd22 093e 34a2 3a3e 72cf 7abd 31ae 24be
000000a0: 170f 0e3e f5bc 5c3d d75a 163e 8076 b4bd
000000b0: fd72 973d 3364 dabd 8a80 d33c 0731 12bd
000000c0: b88a 943d ccd0 70bd 38d5 013e 979f 813d
000000d0: 1b7a 22bd 5be3 0d3e 531a dabd f916 ccbc
000000e0: 5229 6dbc 8024 273e 61b5 7cbd 068a 543e
000000f0: 8db2 203e 1b48 c33d 89c5 39bc 0141 32bc
00000100: bc39 edbd 9a88 c53d 8195 0a3e 8efc b53d
00000110: ec9b 55bd 86dd cabd b355 2dbe 73fc 95bd
00000120: 7b13 193e 3730 063e 54b1 453d b34b 313e
00000130: 8c18 ffbd f3bc 213e e367 2abe 602e 90bd
00000140: 67ce 99bd 9bb6 2abe f4fc 50bd 489d 8cbd
00000150: 68b4 563d 006c 933b 3d9d 0e3e 6eaf ba3d
00000160: 77f2 0e3e 2759 16be 9513 04be 80bf 7b3b
00000170: 866f 91bd 909c 1ebc e899 30be 085b 15be
00000180: b711 0a3e bf17 493c 6ce1 3f3c 2c51 9c3d
00000190: fb6f 053d 26cf 9e3b 91d9 c73a 7266 ba3d
000001a0: fbd5 e83d e8fc cfbd 9bb5 233a 07ef 1b3d
000001b0: 075b 1b3e e8a2 233e e4a3 bdbc d0e4 23be
000001c0: 65e7 b83d 3672 f9bd 80a2 b93d e3fd a9bd
000001d0: 695f d03d 224e 453e 3ae9 15bd a2d2 93bd
000001e0: 311a 193d 6695 87bd a2e5 1e3e eedf f5bd
000001f0: 11dc 9ebd b313 423e 2af3 183e 33f6 5c3e
00000200: b433 103e 26fa 12be 8956 65bc 96a1 91bd
00000210: a445 003e 7eed e0bd 7286 b73d dd0b 0a3e
00000220: e559 bc3d acb1 0ebd 4f13 2abe f157 9bbd
00000230: 42e6 053d 29b4 d2bd 5726 833d 0ced d43d
00000240: 53d8 88bd 8807 8cbd 0038 0ebe 1d86 0bbe
00000250: 663e 14bc c9d7 1ebe f681 c13d 5a90 7d3d
00000260: 0de4 f0bd 082f d93d 3f75 293d 1a4a 3abc
00000270: b5a6 133e bab8 31be 5c62 3fbb 859e 7cbd
00000280: 2d55 31be 4ce4 febd 4251 b63d 6761 0d3e
00000290: 1333 afbd 7479 343d 36fd a63d 6cb6 843d
000002a0: 6852 80bc 5acd e83d 121e c0bd 7df6 23be
000002b0: 0c6c 1c3d 20b5 ea3b 50f2 3fbd 10b4 2ebe
000002c0: 3435 043d a056 32be f304 1a3e e957 04be
000002d0: 900d c7bd 3805 83bc 3a8a ef3d 0054 3c3d
000002e0: 64c6 203d 1a18 09be da49 b83d 19f7 0e3e
000002f0: 459c 19be dc6a f9bd 60f9 093c 00dd 5abd
00000300: 3eb4 043e 315b 0fbd cfb8 a6bd 94e7 74bd
00000310: c1a2 cfbd f7f5 033c 95d3 e8bd a19a 26bd
00000320: 269f a53d 94cc 053b 9ffc 03be 0be4 97bd
00000330: 9c6d 8e3c 3336 b43d 1e70 6a3c 0258 b7bd
00000340: c338 073e 1991 0a3e b733 00be 32c6 423e
00000350: 66df 6c3c 0408 2f3d b458 8d3d 5e8c a23d
00000360: 9a47 ac3d 9ae4 f13d ed1b b33c 10ca 0a3d
00000370: aa54 273c 22ff ce3d 26cd aa3d 1649 463e
00000380: 70c1 1b3d e085 2d3c 0529 94bd 2153 233e
00000390: 509f 2cbe 0659 23be 1e01 bbbd 98fa 593d
000003a0: c490 523d 78da 7d3d 6426 39bd 242d fbbd
000003b0: dd7a 343e f3ab 15be 26e5 c43d 834d 90bd
000003c0: bbdd 133e 08f6 d03c 40d2 adbb cec6 2bbe
000003d0: 6850 99bc e806 12bd ce13 11be f267 21be
000003e0: 2f01 d6bd e79c 19be 2e94 2bbe f81a a2bd
000003f0: bbae 1e3e 64dc 1ebe 393f 2ebe 0a64 af3d

net.0.bias f4 [16]
-0.0573693 -0.051006626 0.06562285 0.2188951 0.10369251 -0.0004683137 0.24206442 -0.0012879074
-0.059979558 -0.12000025 -0.11384365 0.18661033 -0.18135747 0.112252995 0.061898287 0.046325482
00000000: 12fc 6abd 53ec 50bd 4665 863d 0926 603e
00000010: bd5c d43d 0088 f5b9 bcdf 773e 00cf a8ba
00000020: 20ad 75bd b1c2 f5bd dc26 e9bd c716 3f3e
00000030: c6b5 39be e6e4 e53d 0f89 7d3d cabf 3d3d

net.2.weight f4 [1, 16]
-0.22190344 0.08326558 -0.24600282 0.19777611 -0.10372596 -0.06702876 0.21407333 -0.10499841
0.24892792 0.18147126 -0.035460353 0.19073671 7.64719e-05 0.15335596 0.09704858 0.16269094
00000000: a83a 63be 2587 aa3d 2ae8 7bbe d285 4a3e
00000010: 476e d4bd 6046 89bd 0a36 5b3e 6809 d7bd
00000020: f6e6 7e3e 9ad3 393e e03e 11bd 7c50 433e
00000030: 8a5f a038 5809 1d3e 68c1 c63d 7498 263e
