results/models/window_nn_theta_10.0.pt (torch, 4831 bytes, 3 tensors)

net.0.weight f4 [16, 32]
0	0x3dff39a7	0.12462168
1	0x3e0ddf9d	0.13854833
2	0xbd39d7a5	-0.04537167
3	0x3e2a7735	0.16647036
4	0xbcc2041b	-0.023683598
5	0x3d6ae43d	0.05734657
6	0xbd7f1665	-0.062277216
7	0x3e0181b0	0.12647128
8	0x3e36a46f	0.17836164
9	0xbdd910a3	-0.10598876
10	0x3e3c87d6	0.18411192
11	0x3d8e3cd8	0.06945199
12	0x3e2f75bb	0.17134754
13	0x3d86d32c	0.065832466
14	0x3e04127a	0.12897673
15	0x3c92c8a2	0.017917935
16	0x3e3aa61c	0.18227428
17	0x3d9a2bca	0.07527883
18	0xbd011288	-0.031511813
19	0x3dc19d45	0.09453825
20	0xbd0dac0f	-0.034587916
21	0x3c9856ef	0.01859614
22	0xbd1a92c3	-0.03773762
23	0x3e18c8ae	0.14920303
24	0xbddf9a4f	-0.10918104
25	0xbd4b8118	-0.04968366
26	0xbc6effa4	-0.014587317
27	0xbd82d0c3	-0.063874744
28	0x3d90a46c	0.07062611
29	0xbdd65c2b	-0.104667984
30	0x3e762959	0.2403921
31	0xbd876139	-0.066103406
32	0x3de53b07	0.11192899
33	0x3c05127b	0.008122082
34	0xbd9534eb	-0.07285484
35	0x3dd6ed2b	0.10494455
36	0x3d1dbdc1	0.03851104
37	0x3e26ff48	0.1630832
38	0x3d2eac2b	0.04264466
39	0xbd0ac183	-0.033875953
40	0x3d8ded87	0.0693007
41	0xbcc80a19	-0.024418877
42	0x3ddbdc12	0.107353345
43	0x3e4bd0f3	0.19903927
44	0x3e19188d	0.14950772
45	0xbce8154e	-0.028330471
46	0x3e1d4297	0.15357433
47	0x3da7e686	0.08198266
48	0x3e13e7c4	0.1444388
49	0xbd47a2a8	-0.048739105
50	0xbde8581f	-0.11344933
51	0xbc12747c	-0.008938905
52	0xbda3afd8	-0.07992524
53	0x3e42cd1b	0.19023554
54	0x3db5d0bd	0.08877704
55	0x3ddd7a86	0.10814385
56	0x3db5ab6f	0.08870589
57	0x3d025c14	0.031826094
58	0x3e3688dd	0.17825647
59	0xbd9b1197	-0.07571714
60	0x3d9e0342	0.07715465
61	0xbd048495	-0.032353003
62	0x3e21a927	0.15787183
63	0x3d40dd44	0.047086015
64	0x3d5dde7c	0.054167256
65	0xbd16daf8	-0.03682992
66	0x3e1622ce	0.14661714
67	0xbdd694bd	-0.10477588
68	0xbdd7eb4c	-0.10542926
69	0xbdd7eea3	-0.10543563
70	0x3e22d108	0.15900052
71	0x3d714cb1	0.05891103
72	0x3e2e2f9c	0.17010349
73	0xbe156416	-0.14588961
74	0xbe338c7b	-0.17534058
75	0xbe0d9f7b	-0.13830368
76	0xbdf38a1a	-0.11891575
77	0x3d92a3e4	0.07160166
78	0x3d81a326	0.06329946
79	0x3e1669d3	0.14688806
80	0xbdbaf749	-0.09129197
81	0xbdf6ce58	-0.12051076
82	0x3dc016fd	0.09379385
83	0xbd925670	-0.07145393
84	0x3ddbbada	0.107289985
85	0xbd2bd2f2	-0.04194922
86	0x3dcf1a4d	0.10112438
87	0xbe0ca56f	-0.13734983
88	0xbdb6b3e6	-0.08921032
89	0x3d5cc10e	0.05389505
90	0x3d19134e	0.037371926
91	0xbd389c1f	-0.045070764
92	0x3dd7ccd9	0.105371185
93	0x3df61e02	0.12017442
94	0xbe034539	-0.12819375
95	0xbdc147eb	-0.094375454
96	0x3e25c0a5	0.1618677
97	0xbd7453c5	-0.0596502
98	0xbd805940	-0.06267023
99	0xbe2f2741	-0.17104818
100	0xbdcf542a	-0.10123475
101	0x3d34e08e	0.044159465
102	0xbcbf2583	-0.023333317
103	0xbe03663f	-0.12831973
104	0x3b87e02c	0.0041465964
105	0xbdf74d4a	-0.120752886
106	0xbe199382	-0.14997676
107	0xbdc75c75	-0.09734432
108	0xbe1e6e29	-0.1547171
109	0xbde68618	-0.11256045
110	0x3e34f2d3	0.17670755
111	0x3d08c294	0.03338869
112	0x3d5f21a7	0.054475453
113	0xbe28d57a	-0.16487685
114	0xbdedc70b	-0.1161023
115	0xbd71036b	-0.05884115
116	0x3ce27316	0.027642768
117	0xbe1f4864	-0.15554959
118	0xbd9bfe22	-0.07616831
119	0xbdd8bdbd	-0.10583065
120	0x3a006c39	0.0004898939
121	0xbd86b73b	-0.06577917
122	0xbc48b3b4	-0.012249876
123	0xbdf55402	-0.11978914
124	0xbdf88068	-0.121338665
125	0xbdd336c9	-0.10313184
126	0xbd77d98d	-0.060510207
127	0xbe0ee007	-0.13952647
128	0x3e07b31d	0.1325192
129	0xbd500b27	-0.050791886
130	0x3e0ba787	0.13638125
131	0x3d2142b4	0.039370254
132	0xbe295a4b	-0.1653835
133	0x3dda7b51	0.10668052
134	0xbd839d02	-0.06426431
135	0xbdaab7c0	-0.08335829
136	0xbe2634cb	-0.16231076
137	0xbe43e607	-0.19130717
138	0x3d0f7157	0.0350202
139	0xbd5de202	-0.054170616
140	0x3d5a2a58	0.05326304
141	0xbe2480d3	-0.16064768
142	0x3decd57a	0.11564155
143	0xbe14e51d	-0.14540525
144	0xbd3d4789	-0.0462108
145	0x3cadc13e	0.02121031
146	0x3d9ab263	0.07553556
147	0x3e020a6d	0.1269929
148	0x3e14cff7	0.14532457
149	0xbe1f9ab4	-0.15586358
150	0x3cec0b08	0.028813854
151	0xbdbbcced	-0.09169946
152	0xbd0f86da	-0.035040714
153	0xbe178aab	-0.14798991
154	0x3e14d205	0.14533241
155	0xbe14ecc0	-0.14543438
156	0x3da15b9c	0.07878801
157	0x3d3e2c86	0.04642918
158	0x3d2af721	0.041739587
159	0xbde3e791	-0.11128152
160	0x3e1d54d1	0.15364386
161	0x3d024a4c	0.031809136
162	0x3c80a376	0.015702944
163	0xbe26bb0b	-0.16282289
164	0x3d89910b	0.06717118
165	0xbd0973db	-0.033557754
166	0xbdb44591	-0.08802331
167	0x3e14478b	0.14480416
168	0x3d049b37	0.032374587
169	0xbdd6b869	-0.10484392
170	0xbdc5a79f	-0.09651112
171	0xbc7d9e53	-0.015479642
172	0x3dbbbc49	0.09166772
173	0xbd55da15	-0.052209932
174	0xbddcfba8	-0.10790187
175	0xbd8a63f2	-0.06757344
176	0xbe0e70fd	-0.13910289
177	0x3d656768	0.05600682
178	0x3e04e8ed	0.12979479
179	0xbe31a016	-0.17346224
180	0x3d0b5772	0.03401894
181	0x3dac9cf8	0.08428377
182	0x3cccf0da	0.02501719
183	0xbd8f580f	-0.06999218
184	0x3dae8cd7	0.08522957
185	0x3dafd7cf	0.08586084
186	0x3d71ed1b	0.059064012
187	0xbd1c0fd5	-0.038101036
188	0xbd5c8ffe	-0.05384826
189	0x3c428be8	0.011874177
190	0xbd1cbcae	-0.038265876
191	0xbd749a03	-0.05971719
192	0x3de22770	0.11042678
193	0x3e1af74f	0.15133403
194	0xbc6e2f0f	-0.014537587
195	0xbcf4a0ea	-0.029861886
196	0x3cb0302b	0.021507343
197	0x3c643773	0.013929236
198	0x3d8ccac2	0.068746105
199	0x3d99413c	0.074831456
200	0xbe0a9ec1	-0.13537122
201	0xbd1ff346	-0.039050363
202	0x3e3918b4	0.1807583
203	0x3dd88f73	0.10574236
204	0x3d023604	0.031789795
205	0xbd8527d2	-0.06501736
206	0xbd852ede	-0.0650308
207	0xbded7e3b	-0.11596342
208	0xbc4ea559	-0.012612664
209	0x3ddbdd3a	0.10735555
210	0x3e25d3e7	0.16194116
211	0x3e04a953	0.12955217
212	0xbde25b6c	-0.110525936
213	0xbd890249	-0.06689889
214	0x3be8803c	0.007095365
215	0x3e511a1f	0.2042012
216	0x3d6b36ee	0.057425432
217	0xbc50a1a7	-0.012733853
218	0x3ddf7294	0.10910526
219	0xbcd04887	-0.025425209
220	0xbd80b0d7	-0.062837295
221	0x3e46b457	0.19404732
222	0xbbcda0e2	-0.0062752822
223	0x3d29d096	0.04145869
224	0xbe34142d	-0.17585821
225	0x3df24d46	0.11831145
226	0x3e092582	0.13393214
227	0x3d83f1c0	0.064425945
228	0xbdfc70b3	-0.12326183
229	0xbe32a7bb	-0.17446797
230	0xbe130525	-0.14357431
231	0x3e06fc75	0.13182242
232	0x3dadd11d	0.08487151
233	0x3e18541d	0.14875837
234	0x3dbda941	0.09260798
235	0x3d374220	0.044740796
236	0xbae2e6b3	-0.0017311185
237	0xbe09aa92	-0.13443974
238	0xbe1b17a3	-0.15145735
239	0xbe2950f2	-0.16534784
240	0x3d943472	0.07236566
241	0xbdb1bfd8	-0.086791694
242	0xbd11b8f1	-0.035576764
243	0xbdd05aeb	-0.10173591
244	0xbd03f1a7	-0.03221288
245	0xbdfed0c1	-0.124421604
246	0xbdec8fce	-0.11550866
247	0x3d702f2d	0.05863874
248	0xbd573173	-0.052537393
249	0x3ddf808a	0.10913189
250	0xbd684a55	-0.056711514
251	0xbe04ca34	-0.1296776
252	0xbcff82c7	-0.03119029
253	0xbdaf7f4f	-0.08569204
254	0xbd5d867e	-0.05408334
255	0xbe2c5461	-0.16829063

net.0.bias f4 [16]
0	0xbdad8055	-0.08471743
1	0xbeac5ca7	-0.33664438
2	0xbde513fa	-0.11185451
3	0xbe167f0e	-0.14696905
4	0x3e0d8286	0.13819322
5	0xbe329ef0	-0.17443442
6	0x3cb1676d	0.021655763
7	0xbbc2bada	-0.0059426846
8	0xbcd2545e	-0.025674995
9	0xbe1f501a	-0.155579
10	0xbc85d977	-0.016339047
11	0xbbced904	-0.0063124914
12	0x3e02e133	0.12781219
13	0xbe1d29ae	-0.15347931
14	0x3d68f03a	0.056869723
15	0xbe07136a	-0.13191

net.2.weight f4 [1, 16]
0	0x3d9b80c3	0.07592919
1	0x3dd45d9e	0.103694186
2	0x3d8c0c40	0.06838274
3	0xbdf64e64	-0.120266706
4	0xbc9a9149	-0.018868105
5	0x3e6c06c4	0.23049456
6	0x3e1e3301	0.15449144
7	0xbc19e160	-0.0093921125
8	0xbe6b8a16	-0.23001894
9	0x3da2ba8a	0.07945736
10	0xbe2e5448	-0.17024338
11	0x3e6e9fda	0.23303166
12	0xbe1b6a14	-0.15177184
13	0xbc93de70	-0.018050402
14	0xbd3c0673	-0.045904588
15	0x3daff41f	0.08591484
