results/models/window_nn_theta_20.0.pt (torch, 3949 bytes, 3 tensors)

net.0.weight f4 [16, 32]
0	0x3e1e1448	0.15437424
1	0xbd59282b	-0.053016823
2	0xbe2f602a	-0.17126527
3	0xbdd59ed8	-0.10430688
4	0x3e0e5856	0.13900885
5	0x3e0a913c	0.13531965
6	0xbde04f66	-0.10952644
7	0xbe0bfde3	-0.13671069
8	0x3dba0cac	0.09084448
9	0x3e20fa73	0.15720539
10	0xbe07202c	-0.13195866
11	0xbd8540ac	-0.06506476
12	0x3e2010d8	0.15631425
13	0x3e0960fa	0.134159
14	0xbd28de5f	-0.041227695
15	0xbe22c758	-0.15896356
16	0x3d9c6ca6	0.076379105
17	0xbd61583b	-0.055015784
18	0xbd1c2697	-0.03812274
19	0xbdc05489	-0.09391124
20	0x3de8f0ce	0.11374055
21	0xbdbdcc33	-0.092674635
22	0xbd8c859a	-0.0686142
23	0xbdd1cd76	-0.10244267
24	0x3c8f7010	0.01750949
25	0xbdddfff6	-0.10839836
26	0x3d4de28e	0.050264888
27	0xbd99cac6	-0.07509379
28	0xbe2ff4c2	-0.17183211
29	0x3e2d6294	0.16932136
30	0x3e048a7a	0.1294345
31	0xbe13f217	-0.14447819
32	0xbdd8c1d1	-0.105838425
33	0x3da68146	0.08130126
34	0x3b473e00	0.0030401945
35	0xbd7ce69c	-0.061743364
36	0xbdfd6fa2	-0.12374808
37	0x3e19cd93	0.15019827
38	0x3e09c101	0.13452531
39	0xbe032541	-0.1280718
40	0x3d4fec8c	0.050762698
41	0xbd61c63e	-0.0551207
42	0x3dedebfa	0.116172746
43	0xbdffa820	-0.12483239
44	0xbd4149f0	-0.047189653
45	0xbd921311	-0.07132543
46	0xbdfde048	-0.12396294
47	0xbb3da980	-0.0028940141
48	0xbd2deda0	-0.042462945
49	0x3e082ff3	0.13299541
50	0xbd36edcc	-0.044660375
51	0x3da4aee6	0.08041172
52	0xbc6caca0	-0.014445454
53	0x3e109a43	0.14121346
54	0x3b8de000	0.0043296814
55	0xbc3023f0	-0.010750756
56	0xbda8f062	-0.082489744
57	0x3d454280	0.048159122
58	0xbe0d65a7	-0.13808309
59	0x3d6e31b4	0.05815287
60	0x3ddf8ef2	0.109159365
61	0xbce5f350	-0.028070122
62	0xbd875efe	-0.06609915
63	0xbe0f6a82	-0.14005473
64	0xbe00eb18	-0.12589681
65	0xbd90d2a6	-0.07071428
66	0xbcd5e396	-0.026109498
67	0xbe24553d	-0.16048141
68	0xbce32d1c	-0.02773147
69	0xbd56fc0a	-0.052486457
70	0xbe2dab76	-0.16959938
71	0x3db41c62	0.08794476
72	0xbe0b358a	-0.13594642
73	0x3e0c795c	0.1371817
74	0xbe2378cd	-0.1596405
75	0xbd5e5041	-0.054275755
76	0xbdacba28	-0.08433944
77	0xbe5af3fa	-0.21382132
78	0xbdb4c63a	-0.08826871
79	0x3dae9cc8	0.085259974
80	0x3df65faf	0.12029969
81	0xbd9159a4	-0.07097176
82	0x38d3b20c	0.00010094428
83	0x3e1f89eb	0.15579955
84	0x3e236283	0.15955548
85	0x3d1268e9	0.03574458
86	0x3de824ad	0.1133512
87	0x3d4a31d2	0.04936392
88	0x3def69d6	0.116901085
89	0x3e56c00f	0.20971702
90	0x3d1801b8	0.037111014
91	0x3e075d2b	0.13219135
92	0x3e085043	0.13311867
93	0xbb896899	-0.004193377
94	0x3dd90f39	0.105986066
95	0x3e3d82cc	0.18506926
96	0x3c37e003	0.011222842
97	0xbdeb8fd6	-0.11502044
98	0x3a176732	0.000577557
99	0xbe10d4ca	-0.14143673
100	0x3d1a8b8b	0.037730735
101	0xbc2b78f7	-0.010465852
102	0x3bbd5bae	0.0057787513
103	0x3bf89d4d	0.007587111
104	0x3e350818	0.17678869
105	0x3de0f416	0.10984056
106	0xbd8f9f6b	-0.070128284
107	0x3d8b6216	0.06805818
108	0xbe120bb3	-0.14262275
109	0x3c68ff6c	0.014221054
110	0xbda79ed8	-0.08184594
111	0xbe15b94b	-0.14621465
112	0xbe156424	-0.14588982
113	0x3e20bbbb	0.15696613
114	0xbd7b08fd	-0.06128787
115	0xbdaaede9	-0.08346159
116	0xbe141eec	-0.14464921
117	0x3df825a3	0.12116554
118	0x3e34b062	0.1764541
119	0x3d02dc79	0.03194854
120	0x3d46cc39	0.048534606
121	0x3e262ad8	0.16227281
122	0x3e14f3c3	0.14546113
123	0x3e2649bd	0.16239066
124	0x3e6e42a9	0.23267616
125	0x3d2f0a30	0.042734325
126	0x3bbcf7cc	0.0057668444
127	0x3d3fdfb2	0.04684419
128	0x3c8d1697	0.017222686
129	0x3cb314fb	0.02186059
130	0xbe0bbb50	-0.13645673
131	0xbd9bb3f0	-0.0760268
132	0xbd9bd302	-0.07608606
133	0xbc54ccf4	-0.012988318
134	0xbd79c123	-0.060975205
135	0xbd113149	-0.035447393
136	0xbb7e424e	-0.0038796845
137	0x3d810ca5	0.0630124
138	0x3dbafe3c	0.091305226
139	0x3db444a8	0.08802158
140	0x3c978f09	0.018500822
141	0x3e141f86	0.1446515
142	0xbda63a63	-0.08116605
143	0xbd95e6b4	-0.07319394
144	0xbde81463	-0.113320135
145	0x3b085809	0.0020804426
146	0x3d5f70b7	0.054550853
147	0xba59afd8	-0.0008304096
148	0x3e0c6397	0.13709866
149	0x3d5b579e	0.053550355
150	0xbdb52196	-0.08844297
151	0xbdfe08be	-0.12404011
152	0xbd880bb0	-0.06642854
153	0xbdc0f35a	-0.094214156
154	0x3d7e5bc2	0.062099226
155	0x3d67ae76	0.056562863
156	0xbe297689	-0.16549124
157	0x3cc0f146	0.023552548
158	0x3d006064	0.031341925
159	0xbdc413b1	-0.09574068
160	0xbe18051d	-0.148457
161	0x3d46c7dd	0.04853045
162	0xbdd53414	-0.10410324
163	0x3d146008	0.036224395
164	0xbd9b5b62	-0.07585789
165	0x3df259f4	0.118335634
166	0xbe2925e3	-0.16518359
167	0x3db10711	0.08643926
168	0xbd855e5e	-0.0651214
169	0xbe2a900b	-0.1665651
170	0x3deb03f9	0.11475367
171	0x3e05d7d7	0.13070618
172	0x3d799c86	0.060940288
173	0x3e00d588	0.12581456
174	0x3da4a0fe	0.08038519
175	0xbe4f767c	-0.20260042
176	0xbdd786ed	-0.10523782
177	0x3c6168ca	0.013757894
178	0x3bb7ab4b	0.0056051365
179	0xbde346dc	-0.110975
180	0x3d54193c	0.051781878
181	0xbe23c374	-0.15992528
182	0x3d9e737f	0.07736873
183	0x3ca92cb6	0.020651203
184	0x3e013925	0.12619455
185	0x3dcd8b4a	0.10036333
186	0xbdd3afd9	-0.10336275
187	0x3dc2a593	0.09504237
188	0xbb23a4c9	-0.0024970046
189	0x3e0eb101	0.13934709
190	0x3dbc10f9	0.09182925
191	0xbe2fe6d6	-0.171779
192	0xbd1b3a14	-0.037897184
193	0x3df4c335	0.11951295
194	0xbce07af8	-0.027402386
195	0xbd742b45	-0.059611578
196	0xbd53a284	-0.05166866
197	0xbda6a0cc	-0.08136138
198	0xbbc32371	-0.0059551527
199	0x3daa7659	0.08323354
200	0x3cbf39fb	0.023343077
201	0x3dda901d	0.10672019
202	0xbe2d543a	-0.16926661
203	0xbe411533	-0.18855743
204	0xbe11d38b	-0.14240853
205	0x3dccf496	0.100075886
206	0x3d97f40c	0.07419595
207	0xbdad86b3	-0.084729575
208	0xbe1d4453	-0.15358095
209	0x3d20e497	0.0392805
210	0x3d498889	0.049202476
211	0x3d83d50e	0.06437121
212	0xbcecce7b	-0.028907051
213	0x3e055a10	0.13022637
214	0xbe1e54e1	-0.15462066
215	0xbe0dba7b	-0.13840668
216	0x3cc27497	0.023737235
217	0x3aaff5b2	0.0013424663
218	0xbd81f149	-0.063448496
219	0x3d638489	0.055546317
220	0x3c333bb1	0.0109395245
221	0xbe1374f2	-0.1440008
222	0x3dba1112	0.09085287
223	0x3e18b621	0.14913227
224	0x3e2e00b6	0.16992459
225	0x3e052d9b	0.13005678
226	0xbb7cf5ad	-0.0038598583
227	0xbd72e0be	-0.059296362
228	0x3e18291d	0.14859433
229	0x3e1a2162	0.15051797
230	0xbd93a0c7	-0.072084
231	0xbdca7591	-0.09885705
232	0xbe0b877c	-0.13625902
233	0xbdcce744	-0.10005048
234	0x3e00626c	0.12537545
235	0x3ddc36fa	0.107526734
236	0xbd08fbf4	-0.033443406
237	0xbb52140a	-0.0032055401
238	0x3d3d30e4	0.046189204
239	0x3d7fdc7e	0.062466137
240	0x3dc620cd	0.09674225
241	0xbe04081f	-0.12893723
242	0x3d51157a	0.051045872
243	0xbe09bc5e	-0.13450763
244	0x3dda177a	0.10649009
245	0x3e0a2ac7	0.13492881
246	0x3e1746f2	0.14773157
247	0x3cba3e76	0.022734862
248	0x3e763fef	0.24047826
249	0xbdc39b4d	-0.09551106
250	0x3e2945cb	0.1653053
251	0xbcdd5875	-0.027019719
252	0xbd7fa36f	-0.06241172
253	0x3e64f6bb	0.22359745
254	0x3e3d829b	0.18506853
255	0x3d82cc0e	0.063865766

net.0.bias f4 [16]
0	0x3dc663b3	0.09686985
1	0x3d9bb3d6	0.0760266
2	0xbdf1cee0	-0.118070364
3	0x3bd8e2ff	0.006618857
4	0x3dddd687	0.108319335
5	0x3c79085b	0.015199746
6	0x3da9efcb	0.0829769
7	0x3d67ed47	0.05662277
8	0x3d0661c8	0.032808095
9	0xbda4a1d4	-0.08038679
10	0x3e27ac45	0.1637431
11	0xbe1dc19a	-0.15405884
12	0x3d938c5d	0.072045065
13	0x3e28ab8d	0.16471691
14	0x3da04cdc	0.0782716
15	0xbd68ba49	-0.05681828

net.2.weight f4 [1, 16]
0	0xbddcd75a	-0.107832626
1	0xbd3f77d8	-0.04674515
2	0x3d8daf5e	0.06918214
3	0x3d5eea78	0.054422826
4	0xbdefd8a8	-0.11711246
5	0xbe2e8520	-0.1704297
6	0xbe6cc1de	-0.2312083
7	0x3dc2d781	0.0951376
8	0xbe4138bb	-0.18869297
9	0xbc41d6c0	-0.011830986
10	0x3e39202c	0.18078679
11	0x3dc77495	0.09739033
12	0xbd0b23f0	-0.03396982
13	0xbde3c480	-0.11121464
14	0x3e61dc89	0.22056784
15	0x3e4ea329	0.20179428
