results/models/window_nn_theta_10.0.pt (torch, 3949 bytes, 3 tensors)

net.0.weight f4 [16, 32]
00000000: 24af 7e3d b691 85bc 3e5b fa3c 7a18 dfbd
00000010: e9e8 3cbd b804 9fbc 1ed7 273e 8997 38bc
00000020: e52c 05bd 7be5 2e3d cc25 98bd 031d 1f3d
00000030: f2af b2bd 7b4b 19be f701 033e b340 fb3d
00000040: cc94 10be 3e05 533d d7fd 113e 5c35 38bd
00000050: 9426 37be 627a 093e 62d6 c53d 3e4c 353d
00000060: 83e7 dbbd aebc 38be 5698 e83d cda2 063c
00000070: 708a 213d 9520 b7bc 6cdd 14be 7586 61bd
00000080: b6b5 a039 73e6 56bd 0174 3b3e a7e4 59bb
00000090: f1f5 353e f6a3 923d 631f 2a3e 1dfc 9ebd
000000a0: 8a17 f73d b6ee 0b3e febc 203e 5608 f33b
000000b0: 7b94 f83d 66b5 433e 0dff 283c 6de1 03be
000000c0: e9dd 393e b883 2d3e 0e2b 26bb ea59 5f3e
000000d0: e88c 4f3d 2790 7cbc 530c 263e 4092 203e
000000e0: 53bb 8cbd eacc f13d eeed 803d 0ff1 633d
000000f0: 2935 763e 9a98 623e 72d5 843d 3d02 1f3e
00000100: d4ec 0fbe 6bb8 1c3e d513 dfbd dfc2 89bd
00000110: 7175 193e 27d8 c6bd d607 30be 1cbf 7ebd
00000120: ff19 8fbd 9c4e d9bd 4a82 da3d 0033 e63b
00000130: c014 4ebd b947 1a3e eef8 81bd d89f 32be
00000140: 5c8b 32be f05c 29bd fa33 823d f5ae debd
00000150: 8269 b4bd 3c82 2dbd c804 cabc f608 c13d
00000160: a08d 30bc 884a d9bd 1e74 cf3d 28b8 c53c
00000170: c963 92bd 326a 28be e81b 3bbd 0bed 073e
00000180: 4035 6abb 489e 2d3d 303c 66bc eb72 ccbd
00000190: e105 acbd ca99 a23d 185e 32be 58a2 2ebe
000001a0: b85b 8e3d a7c7 113e 6548 073e 17d2 aebd
000001b0: 780c 45bd 0050 48b9 3b94 1b3e 2133 90bd
000001c0: 84c0 f1bd b079 29bd 8f52 0cbe a2cf 9ebd
000001d0: e0dd dbbd 8022 f6bb 40c7 bfbd 1010 5a3d
000001e0: 6249 fbbd f796 1cbe 1e46 f23d 2ea4 0fbe
000001f0: 0831 b1bd 0c92 763d 1c51 543d 569b fcbd
00000200: bc78 2d3e 7721 78bd 0d1a d8bd 7ab5 803d
00000210: d563 3a3e 671f 1a3e 4c68 c8bd cf71 3a3d
00000220: 4213 853d b0c9 f8bd d10b 953d f4b2 473d
00000230: 4254 b0bd 5726 ad3d cc74 593e 9cf6 43bd
00000240: ecf2 08be 6730 513e 1fcb 6f3d d089 593e
00000250: 7ddf 573e 3365 fb3c b6ca a0bd a88b 0d3e
00000260: 00f1 cebd 6099 033e c629 b63d 7c44 033e
00000270: d21b 223e 3f9a c23d 457b 023e 5710 67bd
00000280: 408c 84bc b493 2bbe 4875 bebc c6ea 1abe
00000290: c3f8 283e 1ca3 853d 2aa2 c03d 5c8a 9ebd
000002a0: 55ad 2f3e 80ef 773c 9219 fb3d 0dee 33be
000002b0: 0d22 2d3e 1fb9 15be dd2c 143e d089 793c
000002c0: 86f9 16be aa2d dd3d 4060 243c 8673 1dbe
000002d0: 41cb 88bd 7d77 0f3e 8068 45bd 78b1 833c
000002e0: 60a3 16bc c0de f1bb e02e cdbd c86d f6bd
000002f0: 68de 36bd d243 cd3d 0eaa 22be f446 1cbd
00000300: 549a 8cbd 8513 1bbe 05df 1fbe 3006 283d
00000310: e80a 2bbe 7847 42bd d5f6 143e 68e3 cebd
00000320: d40f a7bd 2923 00be 97e7 c7bd c43d 5f3d
00000330: 85b6 db3c f5ca 9dbc 12c9 39bc ec67 953d
00000340: 0b5f 2dbe ff35 073e df1e b1bc c7c4 1e3e
00000350: 0b8b 7e3d 8f90 213d aebf b83d 1951 00be
00000360: 5223 2f3d 6b3d 02be 5e9a bf3d beeb 593d
00000370: 43d6 97bd 75d4 71bc 2652 193e 8ea9 113e
00000380: 3e0c 353e b598 0abd c5a3 d13d eb17 d5bd
00000390: c27e 0dbe ea3d f1bc 5a98 4a3e a9d8 0f3e
000003a0: 458f d4bd be4e e93d 9bcb 883d c36f e8bb
000003b0: 5883 ea3b 415e a73d d5a7 203e 861a 823c
000003c0: 6c52 2d3e 5811 273e 71dc fbbc 0696 e03d
000003d0: 14d1 de3c 20a9 27bd d394 283c 0285 413e
000003e0: d6c3 c3bd 1d3d 843c a638 bb3d 3b28 5a3e
000003f0: 6512 9d3d db36 173e de98 683e 9353 30bd
0.062178746 -0.016304832 0.030561086 -0.108933404 -0.046120558 -0.01941143 0.16390654 -0.011266598
-0.032513518 0.04269932 -0.07429084 0.038846027 -0.08724965 -0.149702 0.12793718 0.122682
-0.14119262 0.05151867 0.14256988 -0.044972762 -0.1788581 0.13425592 0.09660031 0.044262163
-0.10737517 -0.18040726 0.11357181 0.008217526 0.039438665 -0.022354404 -0.1453759 -0.05505987
0.00030652963 -0.052465867 0.1830597 -0.003324786 0.177696 0.07160179 0.16613536 -0.077629305
0.120650366 0.1366528 0.15697095 0.007416765 0.121376954 0.19112167 0.010314715 -0.12878962
0.18151058 0.16944778 -0.0025355252 0.21811643 0.050671488 -0.015415228 0.16215639 0.1568079
-0.06871667 0.118066624 0.062953815 0.055649813 0.24043716 0.22128525 0.06486024 0.15528198
-0.14055187 0.15304725 -0.108924545 -0.06726622 0.14986207 -0.097091965 -0.17190489 -0.062193975
-0.0698738 -0.10610697 0.10669382 0.0070251226 -0.050312757 0.15066423 -0.06346308 -0.17443788
-0.17435974 -0.041348398 0.0635757 -0.10873214 -0.088091865 -0.04236053 -0.024660483 0.09425537
-0.0107759535 -0.10609919 0.101295695 0.024135664 -0.07147939 -0.1644676 -0.04568091 0.13274018
-0.0035737306 0.042387277 -0.014052436 -0.09982856 -0.08399559 0.07939489 -0.17418706 -0.17054117
0.06951088 0.14236318 0.1321121 -0.08536165 -0.048107594 -0.00019103289 0.15193264 -0.07041002
-0.118042976 -0.041375816 -0.13703369 -0.077544466 -0.10735679 -0.007511437 -0.09364176 0.053237975
-0.12269856 -0.15291964 0.1182978 -0.14027473 -0.0865193 0.060197875 0.051835164 -0.123343155
0.16940588 -0.06057879 -0.10551844 0.06284614 0.18202145 0.15051042 -0.09785518 0.045518693
0.06497814 -0.12147844 0.072776444 0.048754647 -0.08609821 0.08454578 0.2123596 -0.047842607
-0.13373917 0.2042862 0.05854332 0.21243978 0.21081348 0.030687904 -0.07851164 0.13822806
-0.10104561 0.12851477 0.088946864 0.12819093 0.15830925 0.09502076 0.12742336 -0.056412067
-0.016180158 -0.16755563 -0.023249283 -0.15128621 0.16501145 0.06525251 0.0940593 -0.07741234
0.17155965 0.015132785 0.122607365 -0.17571278 0.1690752 -0.146214 0.14470239 0.015230611
-0.14743623 0.10799725 0.010032713 -0.153761 -0.066793926 0.14010425 -0.048195362 0.016075835
-0.009194225 -0.00738129 -0.10018706 -0.12032658 -0.044645697 0.10022701 -0.15885183 -0.038153604
-0.06865373 -0.15144165 -0.15612419 0.041021526 -0.16703379 -0.04743144 0.14547284 -0.10101968
-0.08157316 -0.12513413 -0.09760969 0.054502264 0.02682043 -0.019261817 -0.011339443 0.07295212
-0.16930787 0.13204192 -0.021621166 0.15504752 0.06214432 0.039444502 0.09020935 -0.12530936
0.042758293 -0.12718742 0.09355615 0.053203337 -0.07413914 -0.014760126 0.14972743 0.14224836
0.17680451 -0.03383704 0.10236315 -0.104049526 -0.13817886 -0.029448468 0.1978468 0.14047493
-0.10378889 0.11391972 0.0667946 -0.007093401 0.0071567707 0.081722744 0.15689023 0.015881788
0.16925973 0.1631521 -0.030744763 0.10966115 0.027199306 -0.040932775 0.010289389 0.18898395
-0.09558837 0.016142422 0.09141664 0.21304409 0.07669524 0.1476702 0.22714564 -0.043048453

net.0.bias f4 [16]
00000000: 055f 88bd 1684 c3be 3521 0fbe 8641 14be
00000010: c5dc 743c 51bc b0bd 2412 75bd e9b3 5e3d
00000020: 530f 9ebd caba ac3d 2a05 1fbe 259b aabd
00000030: d9ab 0abd 9f96 9fbd ca15 883d 1f0d 5cbd
-0.066587485 -0.3818671 -0.13977511 -0.1447812 0.014945214 -0.086296685 -0.059831753 0.054370794
-0.077177666 0.08434065 -0.15529314 -0.08330373 -0.033855293 -0.077924006 0.06644781 -0.05372345

net.2.weight f4 [1, 16]
00000000: 18dd babd 489a dd3d c01a cbbd e00d 3a3d
00000010: d050 203e 24f6 53be 510e eebd 6fff 2d3e
00000020: 00ae a63c 2204 46bd 8e21 06be 30f8 943c
00000030: 07be 0cbe 1387 adbd f105 a1bc 7ede 14bc
-0.091242015 0.108204424 -0.099172115 0.04542339 0.15655828 -0.20699364 -0.116238244 0.16991971
0.020346642 -0.048343785 -0.13098738 0.018184751 -0.13744365 -0.08473029 -0.019656153 -0.009086249
