results/models/window_nn_theta_10.0.pt (torch, 2925 bytes, 3 tensors)

net.0.weight f4 [16, 16]
000000 30 46 ac 3d 0b 42 a0 bd 24 99 aa bd 12 7e c2 bd
       0.08411825 -0.07825097 -0.083299905 -0.09496702
000010 64 49 03 3d 43 b2 4b 3e 38 e2 bb 3d 83 c4 72 be
       0.032052413 0.1989222 0.09174007 -0.23707776
000020 9f 11 24 be 80 37 80 be dd 93 28 3e 2a 92 73 3d
       -0.16022347 -0.25042343 0.16462655 0.059465565
000030 3e 37 3b be a1 f2 18 be 14 f5 83 3c 2a bb 47 3e
       -0.18282792 -0.14936306 0.016108073 0.19504991
000040 79 02 3a 3e d8 65 80 3e c5 2e e3 3d 43 95 5c 3e
       0.18165006 0.250777 0.11092905 0.21541314
000050 e5 99 58 3d 81 ed 32 3e 06 31 ee 3d b8 c5 0d be
       0.05288114 0.17473413 0.11630444 -0.13844955
000060 44 03 00 3e 1c ba 90 3d 68 05 d0 b7 46 5d 53 be
       0.12501246 0.070667475 -2.479805e-05 -0.2064105
000070 ef ba d7 3b e8 d1 f7 bd 61 77 8f bd 22 0d 3b 3e
       0.0065835635 -0.12100583 -0.070051916 0.18266729
000080 bc 54 5d be d8 07 4a 3e 12 cd 1f be 28 34 ba bd
       -0.21614355 0.19729555 -0.15605572 -0.09091979
000090 b8 dd 2e 3d 5a cb 40 3e f4 59 cc 3d f4 40 79 be
       0.042691916 0.18827572 0.09978095 -0.24341184
0000a0 20 8a 15 bd e4 dd 39 be 5a 49 20 be c0 93 20 3c
       -0.03650868 -0.18151051 -0.15652981 0.009800851
0000b0 5a 71 70 3e a0 8b 18 be ec c3 9e bd 40 d6 6a bc
       0.2348074 -0.14897013 -0.07752213 -0.014333308
0000c0 8e 6a 52 3e 1c 4a 11 be c8 0e 2a 3e 30 ec 6a be
       0.2054846 -0.14188427 0.16607201 -0.22941661
0000d0 60 bc 46 be a0 3b 4d bd 70 ea 1a 3d 78 b7 ce bd
       -0.19407797 -0.05010569 0.037821233 -0.10093588
0000e0 d6 ce 1e be 50 13 06 3d c2 48 33 be ec eb 34 3e
       -0.15508589 0.03273326 -0.17508224 0.17668122
0000f0 f2 25 32 be e6 6f 77 be 38 49 c2 3d e0 70 92 3c
       -0.17397287 -0.2416378 0.094866216 0.017876089
000100 12 4c 50 3e 86 b4 74 bd 0d 5d 74 be f6 ba 78 be
       0.20341519 -0.059742473 -0.23863621 -0.2429007
000110 71 fb 7c be db 49 21 3e 41 ef bb 3d d9 83 42 3e
       -0.24705292 0.1575083 0.091764934 0.18995608
000120 53 23 99 bd 5d ca 0e 3e a0 45 1d be b0 f0 a8 bd
       -0.07477441 0.13944383 -0.15358591 -0.082490325
000130 fd b4 e8 bc 95 28 12 3e df b4 3e be e9 06 16 3e
       -0.028406614 0.14273293 -0.18623684 0.14651074
000140 48 0b 4b be 5d 56 a9 3d f7 7e 92 bc 22 f7 a6 bd
       -0.19828522 0.082684256 -0.017882807 -0.081526056
000150 c6 42 07 3e 05 c8 d2 3d ec bc 52 3e bf 69 08 3e
       0.13209066 0.10292057 0.2057988 0.13321589
000160 cf c3 bc bb 9f 0e 0f be af 47 49 3d ef 01 8c bd
       -0.005760647 -0.13970421 0.04914063 -0.06836306
000170 86 f0 87 bd 5e 68 bb bd 46 63 14 3e bf 23 a8 3d
       -0.06637673 -0.09150766 0.14490995 0.08209943
000180 20 fb 37 bd 24 f5 bf bd 6c 0b cb 3d 70 d1 70 3e
       -0.044917226 -0.09372929 0.09914288 0.23517394
000190 96 3d 10 3e c0 fb 6d 3d d6 1e 37 be 84 08 2e be
       0.14085993 0.058101416 -0.17882857 -0.16995436
0001a0 0e 11 1b be ba 5e 69 be f8 d5 74 bd 0e 7e 13 3e
       -0.15143225 -0.22790042 -0.05977437 0.14403555
0001b0 d6 79 78 be 68 c6 b8 bd c0 71 fa bd c0 71 36 bc
       -0.24265227 -0.09022218 -0.12228727 -0.011135519
0001c0 84 83 0a be ea bc 2a 3e c8 e0 2b bd ee e9 3d 3e
       -0.13526732 0.16673627 -0.041962415 0.18546268
0001d0 94 f4 67 3e 9c 06 3b be 7e 1d 54 be fe 9e 7f be
       0.22651893 -0.1826424 -0.20714375 -0.24962994
0001e0 70 de a3 bc 28 fc 7d be 24 39 bc bd 9a 18 5b be
       -0.020003527 -0.24803221 -0.09190586 -0.21396104
0001f0 b2 9e 4e be b8 e7 90 bd 5c 94 a9 3d d4 b2 94 3d
       -0.20177725 -0.07075447 0.082802504 0.07260671
000200 23 01 22 3e 8f 4a 76 3e a3 2d 4a 3e 9f 13 ef bd
       0.15820746 0.2405188 0.19743972 -0.11673664
000210 b0 24 87 3e 9a 5e 30 be e7 38 3b be 9f 75 10 3e
       0.26395178 -0.17223588 -0.18283425 0.14107369
000220 db 28 65 3e ae 21 59 bd f2 f1 21 bd c6 d3 6e 3e
       0.22378866 -0.053010635 -0.039537378 0.23322973
000230 89 73 0f 3e 86 49 31 3d ba 87 a1 3e ad 3d cf bd
       0.14008917 0.043283008 0.31548864 -0.101191856
000240 c0 df d8 3d 1e be 50 3e 0a e5 42 3e 2c f2 69 be
       0.10589552 0.20385024 0.19032684 -0.22846287
000250 e0 04 11 3c 62 2a 2f be 1c 58 da bd 70 e8 c9 3d
       0.00885126 -0.17106012 -0.10661337 0.09858787
000260 80 97 ff bd 54 b8 7f be ac ad 55 be 3c b5 2b be
       -0.12480068 -0.2497266 -0.20867032 -0.16768354
000270 6e 47 2b 3e de f6 7c 3e 62 49 5a be 16 8d 09 be
       0.16726467 0.24703547 -0.21317056 -0.13432726
000280 f5 4a 35 3d 4f c2 ea bd e5 9d e9 3c 7d 6c a9 3d
       0.044260938 -0.11462843 0.028517673 0.082726456
000290 9b 03 53 3e 05 d2 17 be cb 73 8c be 9b 5b bf bd
       0.20606844 -0.1482621 -0.27432093 -0.09343644
0002a0 64 c1 fe 3d 5b fd 13 3e 4c 57 f1 bd 60 a7 9c bd
       0.1243923 0.14452116 -0.11784229 -0.07649112
0002b0 94 f6 c2 bc 41 c7 1e 3e 10 59 66 bd c4 90 f7 3d
       -0.023799218 0.15505697 -0.05623728 0.12088159
0002c0 7f 10 df bd 96 02 be bd 2d f5 5c 3e f0 31 0e be
       -0.10891818 -0.09277837 0.21577902 -0.13886237
0002d0 82 d0 7a 3d 55 d5 89 bc eb 5a 42 3e c1 0a 86 3e
       0.061234005 -0.016825357 0.18979995 0.2618008
0002e0 c0 e0 2f 3e c7 75 67 3c 6a f3 39 3e c9 8b 87 3e
       0.17175579 0.014127201 0.18159261 0.26473835
0002f0 c6 ec 33 bd 1b cb 8e 3e 8b 6b fd 3d 1d 4c f9 3d
       -0.043926977 0.27889332 0.12374028 0.121727206
000300 b4 a7 0a be 8c 33 88 bd 3c f7 6a 3e 92 5b 00 be
       -0.13540536 -0.06650457 0.22945875 -0.12534931
000310 a2 ca 19 be c6 9f 29 3e 40 c3 5f be 72 34 25 be
       -0.15018705 0.16564855 -0.21851826 -0.16133288
000320 00 ca 0d bb fc 3d fe 3d da b5 60 be 0e b8 7a be
       -0.0021635294 0.12414166 -0.21944371 -0.24484274
000330 3a 5e 7d 3e 1a b1 33 be 3c d0 c5 3d 88 f9 45 3d
       0.24742976 -0.17548028 0.09658858 0.048333675
000340 c4 61 a1 3c 05 e8 2b bd 41 4b 46 be 9c 39 1c 3d
       0.019699939 -0.041969318 -0.19364645 0.038140878
000350 2a 8c 83 be 41 ca d0 bd 57 15 c9 bc 1d ce f5 bd
       -0.25692874 -0.10194827 -0.024546308 -0.120022036
000360 5f 93 8a 3d b1 de ee 3d 71 e3 5f 3e 15 a6 80 be
       0.0676639 0.11663569 0.21864106 -0.2512671
000370 31 86 8a 3d 55 57 37 be 05 92 39 3d 46 cb 34 bc
       0.06763876 -0.17904408 0.04530527 -0.011034792
000380 de 9d 3f 3e 18 34 81 3d 23 66 12 bd b6 8f 38 3d
       0.18712565 0.06308764 -0.035741936 0.04505893
000390 c5 03 53 3d 3f ec 62 bc de ad 8c be 91 d0 55 bc
       0.051517267 -0.013850271 -0.274764 -0.013050214
0003a0 56 bd da bb a9 e4 b6 bd 64 b9 a4 bd e6 a1 22 bd
       -0.0066754026 -0.08930332 -0.08043173 -0.03970518
0003b0 1f e5 27 3e 3a 65 23 bd ce b0 8b 3d e7 c3 04 3e
       0.16395997 -0.03989146 0.06820832 0.12965356
0003c0 9e 34 54 be 7c f1 5d be 88 46 d5 3d 87 7d 4a be
       -0.20723197 -0.2167415 0.104138434 -0.19774447
0003d0 6b ad d7 3c ff 64 d8 3d a6 20 3b 3e 97 28 5e 3e
       0.02632781 0.105661385 0.18274173 0.21695171
0003e0 7f 9b f2 3d f3 dd 3e 3e bf 41 1f 3d cb a8 85 bd
       0.11846065 0.18639354 0.03888106 -0.06526335
0003f0 db a5 2b 3e fb 5c b2 bd d5 da 67 bc 00 92 36 3e
       0.16762488 -0.08709141 -0.014151295 0.17829132

net.0.bias f4 [16]
000000 2a 7b 36 3e 21 43 9f 3e 00 b2 d8 3d 68 42 37 3d
       0.17820421 0.31105903 0.10580826 0.044741064
000010 21 85 ca 3c 22 65 5d be 20 13 46 3e 38 42 5a 3e
       0.024721684 -0.2162061 0.19343233 0.21314323
000020 4d 0e a1 3d 08 2b 2b bd 67 9c 59 bd 13 a8 04 3e
       0.07864056 -0.041789085 -0.053127673 0.1295474
000030 d6 c7 6f be 70 27 65 3e c4 26 0b be 44 fe ac 3e
       -0.23416075 0.22378325 -0.13589007 0.3378774

net.2.weight f4 [1, 16]
000000 19 9f 04 be de c0 1c 3e 9e e8 00 3e 00 cc ea 3d
       -0.12951316 0.15307948 0.12588736 0.11464691
000010 01 fb 68 be 9e 07 3c be f4 2f 1a 3e 86 4d 43 be
       -0.22752 -0.1836228 0.15057355 -0.19072542
000020 fe 56 7f 3e ac cf 0a 3e 56 33 9b bd 30 2b 8c 3e
       0.24935529 0.13555783 -0.07578151 0.273767
000030 78 38 04 3d 57 5d 91 bd e8 ad 86 bd 19 c8 26 3e
       0.032280415 -0.07097881 -0.06576139 0.16287269
